digit_transformer2.pt (torch, 286768 bytes, 130 tensors)

encoder.linear_proj.weight f4 [24, 256]
00000000: d12a b43e 5992 453e 0a1e 7a3d 516d 323d
00000010: d523 fc3d d9f8 ca3d 9d2a 5b3e c33b 903e
00000020: 6447 963e 8a15 b63e 20ff 543e a342 b63d
00000030: 87ea c1bd 395d 83be 5930 89be 433e bdbe
00000040: cea6 b23e 9928 953d 5f6b 18bc b131 b0bd
00000050: 6d3d 8fbd 5815 87bc 31a2 e63c 7b62 f83d
00000060: 701a 023e 4e05 333e 9ebe 003e 03fe 5d3c
00000070: c8bc 03be 96e2 2cbe 5771 71be 5ec5 7fbe
00000080: 6271 983e 8e5a 9e3c 270b 96bc 3929 9abd
00000090: 1fd7 04bd 27c9 213d fbb4 b43d 5157 2b3e
000000a0: a3cb 233e 909d 3e3e a299 283e c40d 1f3d
000000b0: fddb eebd be4c 5ebe ff2e 2fbe 6f25 98be
000000c0: bbe4 7c3e abff eebb 3f0e 5fbd 4304 96bd
000000d0: da7a 33bd b8fe f13d 1db4 1d3e 6221 253e
000000e0: 237a 623e 2638 803e 801c 133d a568 55bd
000000f0: c817 00be 7130 34be 8026 3bbe 949d 92be
00000100: 244f 253e c1f3 1abd ff4e 07bd e474 8abd
00000110: a0a5 d1bb 42ae 873c 97db 333e 2770 253e
00000120: ea4e 643e 6921 483e c3a5 cfbc 2d8c a7bd
00000130: 21e5 c13a c4c0 fcbd 4c5e 83bd 22e0 30be
00000140: c13b ad3d 657f 8bbd 9625 723c 5449 0b3d
00000150: bf9b c03d 3dc3 c53d f843 3e3e 7422 723e
00000160: 28e7 653e e59a 0d3e d6b3 7e3d 509b 38bd
00000170: 4894 dabd 596e 1abe dae0 f539 bee3 83be
00000180: 480f 453d 709d a2bc 2624 503d f5c0 4cbb
00000190: b548 b43d 737f e43d 64d4 383e 2f22 803e
000001a0: 9bd9 7d3e 77ec 093e 4384 c2bc a56e d8bd
000001b0: 3fa9 b1bd 7d5e f8bc 01dc 52bb 9c0e 4cbe
000001c0: bb90 0fbd 1c3c 9b3d 0c9f d83d 6011 c93d
000001d0: fd9e 913d 2cd1 f73d c745 493e 7931 a33e
000001e0: c4f1 3e3e 375b 8a3d 307e 403c 1b79 32be
000001f0: 7a75 5dba cc78 253d 27aa 76bc ea15 3fbe
00000200: 983b 8ebd a24f 323e 7abc d03d 0639 013e
00000210: c907 073e bea6 273e 1c72 443e 4acb 823e
00000220: 5071 313e 9c82 dbbc 6315 1ebd 4e90 84bd
00000230: 0c22 75bd 8781 983c d7b1 1fbd 3ba9 8ebe
00000240: 87bc 1ebd 50d6 143e dea0 293e 22a0 f83d
00000250: 5110 893d 301a 213e b7a5 303e bc5c 333e
00000260: 4c5d 953d cf58 063d 026b 3ebd b8ee d43c
00000270: 1693 6e3d 55fb 67bc 60f8 04bd 8d18 70be
00000280: 66c6 eebc e4f6 5c3e 0729 133e 53c2 113e
00000290: 8b55 a73d d206 bc3d 567f e03d a778 373e
000002a0: 9688 883d 7e52 8a3c dccd 8b3d a47e de3c
000002b0: 3bcc d63c c977 22bd 6b9a d4bd 35a4 43be
000002c0: fd01 f83d d129 523e 93f0 0d3e e798 d93d
000002d0: 3107 703c 84c7 9c3d 8da6 e53d 7fab 003e
000002e0: a9e3 dd3d b151 bc3d 2a64 643d 0c3e 323d
000002f0: e7f5 efbc 468d 043d 7d0c 84bd a416 13be
00000300: eaf2 4d3e 82e5 723e e94e d03d 32da d93d
00000310: 510f 093d 147f ec3d 4b40 d03d 18bc 243e
00000320: 43a6 ec3d c440 a23d c130 603d e96b 04bd
00000330: f0f6 0b3c a392 95bd 270a 30bc c1ac f6bd
00000340: d280 ab3e e220 e83d c570 2a3d bb30 d83d
00000350: f646 e93c a943 0a3e 856a 143e d017 213e
00000360: b8de c83d 4dfd 333e ad99 cc3c a675 32bd
00000370: 7136 83bd 26ef e0bd 4b61 3e3d 1a1c 21be
00000380: b60e 553e 0a91 973d 252d 293d 8b33 8cbd
00000390: 0b4e 98bd cd33 053e ce48 f53d fe76 dc3d
000003a0: b4ec a83d 38e0 963d 31ce 98bd 6372 d6bd
000003b0: 76ea 12be 292a 62bd d1b4 343d eb9a 4fbd
000003c0: fb17 843e cd62 893e 46b6 5a3e b722 873e
000003d0: 51f0 7f3e 80ea c53e 788b d13e dd24 c03e
000003e0: 2dad b73e d3f8 a73e 4de9 0f3e 325d ad3d
000003f0: 2484 1d3e 2f53 3b3e 2129 203e 0f0c 18bd
0.35188916 0.19294108 0.061063804 0.043561283 0.12311522 0.09910745 0.21402974 0.28170595
0.29351342 0.35563308 0.20800447 0.08899429 -0.09468561 -0.2565706 -0.267947 -0.36961564
0.34892887 0.07283134 -0.009302943 -0.08603228 -0.06994138 -0.01648967 0.02815351 0.12128159
0.12705398 0.17482492 0.12572715 0.013549331 -0.12864983 -0.1688331 -0.23578392 -0.24977633
0.29774004 0.01933029 -0.018315865 -0.07527394 -0.032431718 0.039498474 0.08823582 0.16732527
0.1599565 0.18614793 0.16464856 0.038831487 -0.11663053 -0.21708962 -0.17107771 -0.2971606
0.24696629 -0.0072936616 -0.054456946 -0.073250316 -0.043818332 0.11816162 0.15400739 0.16126016
0.22116904 0.25042838 0.03591585 -0.05210175 -0.12509072 -0.17596604 -0.18276405 -0.28635848
0.16143471 -0.037830118 -0.03303432 -0.06760576 -0.006397918 0.016562585 0.17564236 0.16156064
0.22295728 0.19543995 -0.025347596 -0.08181033 0.0014793017 -0.123414546 -0.0641447 -0.17273
0.08458663 -0.06811408 0.014779469 0.034005478 0.09404706 0.09656379 0.18580616 0.23645955
0.2245146 0.13828619 0.062183224 -0.045069993 -0.10672814 -0.15081157 0.0004689757 -0.2575969
0.048110276 -0.019850463 0.050815724 -0.003124294 0.0880293 0.111571215 0.1804977 0.2502608
0.24790041 0.1346911 -0.023744708 -0.10567979 -0.08674859 -0.030318493 -0.003217459 -0.19927448
-0.035050135 0.07579824 0.10577211 0.09817767 0.07110403 0.12100443 0.19655524 0.31873682
0.18646914 0.06755679 0.011748835 -0.1742901 -0.00084479863 0.040398404 -0.015055216 -0.18660703
-0.0694496 0.1741319 0.10192199 0.12619409 0.13186564 0.16372201 0.19184154 0.25545722
0.17328382 -0.026795678 -0.038594615 -0.064728364 -0.059846923 0.018616451 -0.03898796 -0.27863488
-0.038754012 0.14534879 0.16565272 0.12139918 0.06692565 0.15732646 0.17250715 0.17515844
0.072931856 0.03279954 -0.04648877 0.025992736 0.05824574 -0.014159043 -0.03246343 -0.23446865
-0.029147338 0.21578556 0.1437112 0.14234285 0.08170613 0.09180988 0.109617874 0.17917119
0.06666677 0.016885038 0.06826374 0.027159996 0.026220432 -0.039665017 -0.103810154 -0.19105609
0.12109754 0.20523764 0.13861303 0.10624867 0.014650152 0.07655242 0.11213408 0.1256542
0.10834438 0.09195269 0.055759586 0.043516204 -0.02929206 0.03236129 -0.064476945 -0.14364105
0.20112196 0.23720363 0.10171301 0.106373206 0.033461872 0.11547676 0.10168513 0.16087377
0.115551494 0.07922509 0.054733995 -0.032329474 0.008542761 -0.07303359 -0.010744608 -0.12044669
0.3349672 0.11334397 0.04161145 0.105561696 0.02847622 0.13502373 0.14493759 0.1573174
0.09808105 0.17577095 0.024975622 -0.04356923 -0.06406868 -0.10983114 0.046479505 -0.15733376
0.20806393 0.07400711 0.04130282 -0.068457685 -0.074367605 0.13008042 0.11976777 0.107648835
0.082482725 0.07366985 -0.07461203 -0.10471036 -0.14347252 -0.05521599 0.044117752 -0.05068485
0.25799546 0.26833192 0.21358594 0.26393673 0.24994017 0.38655472 0.4092672 0.37528124
0.3587431 0.32807025 0.14053841 0.08465041 0.15382439 0.18293451 0.1564069 -0.037120875

encoder.linear_proj.bias f4 [24]
00000000: 89c8 dcbc c4ee 923d 5574 c93d 9e67 8c3d
00000010: 572d 7f3d 2d5e 183c afa9 82bd 097a 93bc
00000020: 221f ee3c 20dd 16bd 2af5 79bd 83a6 963c
00000030: 838e e8bc 332c ad3d 5c3f be3d bbc6 16be
00000040: f2c3 89bd 28f5 92bc 966a 1b3d f55c d73c
00000050: e80e 60bc 6896 073b fd66 16bd 19fd 633d
-0.026951091 0.07174447 0.09836642 0.06855701 0.0622991 0.009299797 -0.06380021 -0.018002527
0.02906758 -0.036831975 -0.061024822 0.018389946 -0.028388267 0.08455696 0.092894286 -0.14724247
-0.06726827 -0.017939165 0.037943445 0.026289443 -0.013675429 0.0020689014 -0.03671931 0.055661295

encoder.row_embed.weight f4 [6, 12]
00000000: 69bb 023d 7c1d 1c3e 9b90 b3bf 5d86 7f3c
00000010: 6dc8 ecbe 9c76 5bbf f358 893e 1f50 abbf
00000020: eb08 6cbf f537 8e3f 3247 dc3f f9cc bf3e
00000030: 7e94 8cbf 9f75 543e aa4d 52bf ac0a ef3e
00000040: 75e1 9a3e 1c84 c03e 055b 113f 67fa 123f
00000050: 07ae 3dbe 0ff4 35bd c45a 453f e1f4 85be
00000060: 3dae a4bd 377f 3f3e bd61 9e3f 8467 9dbe
00000070: 2341 70bf 266e f3be ae3c 003e 7eb9 3b3f
00000080: e5eb a4bf a2a5 143f 49d1 0e40 b825 583f
00000090: 8e22 39bf 4955 513f bce7 803d afe6 8dbf
000000a0: f3f4 06bf cb51 0cbd c445 383f d944 9f3e
000000b0: 59ca ccbe c514 c8bf 7a23 07bf 421e f1be
000000c0: 3f28 0bbd f9c0 ad3d b846 fb3e a5d9 3f3f
000000d0: 025d 173f 521a d83e 7f46 c83e 42de 243f
000000e0: 5fd7 8cbf 4859 5a3f 546c db3e 1cc6 d43d
000000f0: 0912 483e 4143 5d3f dbd2 653f 481d 8a3f
00000100: bb22 4a3f ed3f 733f c429 bd3e 5b20 d03f
00000110: 03d3 8dbf c38d e13e 32c8 b23e 5f08 91be
0.03191701 0.15245622 -1.4028505 0.015596 -0.46246663 -0.8572786 0.26825675 -1.3383826
-0.9220111 1.1110827 1.7209227 0.3746107 -1.0982816 0.20747994 -0.82149756 0.4668783
0.30250135 0.3760079 0.5677951 0.57413334 -0.18523417 -0.044422206 0.7709162 -0.2616339
-0.08041046 0.18700872 1.2373577 -0.3074304 -0.9384939 -0.47544974 0.12523147 0.73329914
-1.2884489 0.58065236 2.2315238 0.84432554 -0.7231835 0.8177076 0.062942 -1.1086024
-0.5271751 -0.03425769 0.71981454 0.31107214 -0.3999813 -1.5631338 -0.5278851 -0.47093397
-0.03397393 0.08484072 0.49077392 0.74941474 0.59126294 0.4220758 0.39116284 0.6440164
-1.1003226 0.8529248 0.42856085 0.10389349 0.1953813 0.86430746 0.89774865 1.0790186
0.78959244 0.9501942 0.36945927 1.6259874 -1.1080021 0.44053468 0.34918362 -0.283267

encoder.col_embed.weight f4 [6, 12]
00000000: 4449 8f3f feef 44bf 9688 97bf 5fdd 0740
00000010: 47b5 4ebf bebe 2dbf 0aae af3f 4312 3640
00000020: 2b51 0cbf d46c abbf edbf 4d3e 2d03 593f
00000030: 73d2 013f 1ee1 9fbf fbb0 903f 2446 c83f
00000040: a614 70be b0d3 00bf 62d0 e5bd d6f0 34bd
00000050: 40ba d0be d3d8 dabf 8201 d43d 810a c03f
00000060: e057 b93f c56e 5bbd 94d0 203f 1b53 d03d
00000070: d297 eabf 74e6 8f3d a683 aa3f df66 6e3f
00000080: b6ea f73e 2267 d93e cce9 8c3e 3d91 1a3e
00000090: 467c aabf 748d 993b 7824 acbe 9137 68bf
000000a0: 6d75 8bbf 2cfd e93e 0616 8b3f c218 b53d
000000b0: 6286 f2be a1e7 55be 1f63 fd3e c1ff b03f
000000c0: 81e6 0abf d769 d13f 0a89 0b3f c21d fe3e
000000d0: d740 9f3f 1863 303d ad16 a1bf f3e2 b43f
000000e0: 0629 0e3f 83da 09c0 5f27 10bf 623a 603f
000000f0: eaab 933f 7db5 dbbe a53c c7bd 89a0 813f
00000100: 6a2d d03f 0615 83bc f4c1 a0bf b5a6 d93e
00000110: 8391 efbf 4155 d33f f3b4 d33e 8175 b83d
1.1194234 -0.769287 -1.1838558 2.1228864 -0.8074536 -0.67869174 1.3724988 2.8448646
-0.5481135 -1.3392587 0.20092745 0.8477047 0.50711745 -1.2490575 1.130401 1.5646405
-0.23445377 -0.5032301 -0.112213865 -0.04417499 -0.40767097 -1.709742 0.1035185 1.5003206
1.4479942 -0.053572435 0.62818265 0.10172101 -1.8327582 0.07026377 1.3321426 0.9312572
0.48421258 0.42461497 0.27522123 0.15094467 -1.3319175 0.004686052 -0.33621573 -0.9070979
-1.089521 0.45700967 1.0866096 0.08842613 -0.4736815 -0.2088914 0.49489686 1.382805
-0.5425797 1.6360425 0.5450598 0.49632078 1.2441663 0.043063253 -1.2585045 1.413176
0.55531347 -2.153962 -0.56310076 0.87589085 1.1536839 -0.42911902 -0.09728364 1.0127116
1.6263859 -0.016001236 -1.255919 0.4251 -1.8716282 1.6510392 0.4134899 0.09006787

encoder.encoder_blocks.0.attn.in_proj_weight f4 [72, 24]
00000000: dc74 b2bc ad30 bf3d 327c 303e 6ba0 ccbd
00000010: 865e 42bd 0b8c 2b3e 44a2 89bd d636 3cbd
00000020: fc0f 7abb 95b9 debc 0099 4bbe 9c02 30bc
00000030: 148e 303e 75c3 7bbe 1001 103d a404 78bd
00000040: 7916 8cbd 859a 1d3c 39f8 a43a eb5a 903d
00000050: 3c2e 88bd 7df6 513c a460 d03d 0323 bebc
00000060: 8f40 423e 27b7 03be fe1f 60bc d6cb 7dbd
00000070: f05f 5bbd cb7a 2f3e 25cb cbbd 7fbb 543d
00000080: 8491 933d d3bf d9bd 68a7 d5bc 25eb 2fbd
00000090: 2260 fcbd 19ae 033e 0164 983c 7e28 cabe
000000a0: c728 8b3e 90e6 2b3d 1815 9cbd c1fb 183e
000000b0: fff5 e8bd 57d9 9f3e 8ef0 e5bd b565 45be
000000c0: 5f93 1cbd 3d13 81be 9214 08be 1324 09ba
000000d0: fccb 42be e0f6 813d fb4b 0cbe 1697 60be
000000e0: 7196 033e 8637 0ebc 4b6b bc3d e980 f6bd
000000f0: ed66 3dbc 76ff 2d3d 82dc 42be cc5c 81bd
00000100: c403 94bd 6bbb 073e 1cc9 18be 3b27 93bd
00000110: 1fb5 a43d cf3e 413c 8089 c5bd 9d68 60be
00000120: 7cc0 df3d bc4d e2bd 92c5 ba3b 943c 7e3e
00000130: dbea 413d 5b21 6cbc af2d 863c 5dc0 d9bb
00000140: bb9e a4bc e85a 14be 67cc 0b3d 1d7d 013e
00000150: a306 4c3e cc33 80bb f52a 46bd fb1f 9a3e
00000160: 28f7 87be 6679 0d3d 4f97 d53d f848 5ebd
00000170: af40 f83d 6cb2 cebd cc48 d03d 292f 92bc
00000180: f518 1d3e 97ca a9bd 246c 6f3d a05c c33d
00000190: 2c79 583c 854c 603d f981 ce3c dbc2 33be
000001a0: dd77 e8bc 9b57 09be 24df 8a3d 6096 bfbe
000001b0: f738 8c3d 776c 9c3d e4d9 013d 9782 9e3d
000001c0: 240e a7be 9b5e d6bd 5cae b13d cfa6 753d
000001d0: 3c3a 3ebe 3a53 f9bc 7830 213e 6c28 6dbd
000001e0: 22d8 cc3d c8c4 8abe c98d 59be 0ad6 45be
000001f0: 8810 debd e8d8 b9bd e1da 1ebe 01f4 9b3b
00000200: f08f 82bd a4f4 02be c27f eb3d 95ff e43d
00000210: 36b5 d6bb 55bb d7bd 2a7a 93be 1086 1e3e
00000220: a832 22bc 5391 a03c 9df6 e33d 6e0e 0a3e
00000230: 2c6d fabd 03e5 9ebe fa2b 48be 0acb 2a3a
00000240: ed6f 4ebe c448 61be dacf 07be aaf0 d93c
00000250: c130 f63d 2301 ea3d 3cad 483e eff0 163e
00000260: b782 463e ff8a f2bc 43aa 42bd 8782 4d3e
00000270: c449 063c 4832 eebd 488b 69be 9f5a dfbc
00000280: 0ef9 233e 31cc 27bd f608 9d3e 6b38 1cbe
00000290: 0d52 e33d 1280 7bbe 1c7d 33be bf66 1b3c
000002a0: 537d a0bd df5a 213c ca88 b1be f3f1 b93d
000002b0: 06e6 26be 7c5a 87be a29a 5e3c aa8c 093e
000002c0: 2351 8c3d 96d7 a93e 31a6 5fbe 8773 cf3d
000002d0: 65f2 e03d fce7 893e bd0a 503c cbda 86bd
000002e0: 57ad 1b3c cd00 a5be d823 243e 3b6d 6bbd
000002f0: 4207 aabe 5133 4ebe 1ae2 3dbc befb c83d
00000300: 5c1d 833e fd52 e3bd 031a aebd d8c2 92bd
00000310: c3b6 66bc 014f e7bd ca6c 98be 81f3 293e
00000320: ffa6 813e 6f52 12ba c657 8d3d 786d 16be
00000330: 33e1 433c 8061 4f3e f37b 2ebc 7133 9d3d
00000340: 98fb ed3d 8573 853c 6eb5 e03d 8261 4fbe
00000350: e715 1b3e 6e54 b43d 7ad5 3f3e b8b7 15be
00000360: d1af 21be f83a eebb 2c38 3ebe 2bb7 663d
00000370: 0a55 6a3e e999 9d3d 0bf2 a0bd 577e 313e
00000380: df10 073e 18bd 00be babb 3b3e 5feb 43be
00000390: ea15 a33d 45a4 4c3c 2c81 9dbe 2ac7 9dbe
000003a0: 13b3 38bd 2e80 ec3e e2a2 583d c6f7 923e
000003b0: ddf2 f93d 6fcd f53d 5820 5a3c 9e21 6f3e
000003c0: 6b4c 9b3d 71e6 e13d ec37 7cbe 954a 703e
000003d0: d0f0 2abe d061 a03e 8520 53be 9b4a e73c
000003e0: 6f73 0ebe bd12 34be 2b39 bcba bca8 b03c
000003f0: 6d99 a2bd 996d 613e 54a3 093d 8bc5 cebd
-0.021784239 0.09335456 0.17234877 -0.09991535 -0.047453426 0.16752641 -0.06720403 -0.045950733
-0.00381565 -0.027188102 -0.19882584 -0.01074281 0.17241699 -0.2458628 0.035157263 -0.0605513
-0.06840224 0.00961936 0.0012586183 0.07048591 -0.066494435 0.012815115 0.10174683 -0.023210054
0.1896994 -0.12862836 -0.0136795025 -0.06196197 -0.05355829 0.17136686 -0.09950856 0.051936623
0.07205489 -0.10632291 -0.026080802 -0.04294886 -0.123230234 0.12859382 0.018602373 -0.39484018
0.27179548 0.04196793 -0.07621211 0.14939786 -0.11375045 0.31220505 -0.11227523 -0.1927708
-0.03822648 -0.2520999 -0.13289097 -0.0005231511 -0.19023126 0.06345916 -0.13700859 -0.21932635
0.12850358 -0.00868023 0.09200152 -0.120363064 -0.011560184 0.042479955 -0.1902943 -0.06316528
-0.07227281 0.13255088 -0.14920467 -0.07185217 0.080423586 0.01179476 -0.09645367 -0.21914907
0.10925385 -0.11049983 0.0056998217 0.24827796 0.047343116 -0.014412249 0.016379206 -0.006645246
-0.02009522 -0.14487803 0.03413048 0.12645383 0.19924407 -0.0039124247 -0.04838081 0.30102524
-0.26555753 0.034539603 0.104292504 -0.054268807 0.121217124 -0.10092625 0.10170135 -0.017844753
0.15341552 -0.08290594 0.05845274 0.09539151 0.013212483 0.054760475 0.02520846 -0.175548
-0.028377468 -0.13412325 0.06780842 -0.37419415 0.06846803 0.076378755 0.031701937 0.07739752
-0.32627976 -0.10467263 0.086758345 0.059973534 -0.18576902 -0.030435193 0.15741146 -0.057899877
0.100021616 -0.27103257 -0.21245493 -0.1931993 -0.10842997 -0.09074575 -0.15513183 0.004759312
-0.0637511 -0.12788635 0.11498977 0.11181561 -0.0065523637 -0.105337776 -0.2880414 0.15480828
-0.009899773 0.019600546 0.11131022 0.13482067 -0.12227854 -0.31034097 -0.19548026 0.00065152405
-0.20159884 -0.22000414 -0.13262883 0.026604015 0.12021018 0.11425998 0.19597334 0.14740346
0.19385801 -0.029607294 -0.047525655 0.20069323 0.008196298 -0.11630684 -0.22807038 -0.027264891
0.16012976 -0.040966216 0.306709 -0.15255897 0.11099634 -0.24560574 -0.17528194 0.009484946
-0.07836404 0.0098483255 -0.34674674 0.09079351 -0.16298684 -0.26436222 0.013586672 0.13432565
0.06851413 0.33172292 -0.2184074 0.10129457 0.10983733 0.26934803 0.012697873 -0.065847
0.009501777 -0.32227173 0.16029298 -0.057477217 -0.33208662 -0.20136763 -0.011589551 0.09813641
0.25608337 -0.11099813 -0.08501055 -0.0716607 -0.01408166 -0.11294366 -0.297705 0.16596796
0.2532272 -0.00055817416 0.06901507 -0.14690197 0.011955547 0.20252037 -0.010649669 0.07675827
0.11620253 0.016290436 0.10972105 -0.2025204 0.15145074 0.08805166 0.18733779 -0.14620864
-0.15789725 -0.007270213 -0.18576115 0.056327026 0.22884002 0.07695372 -0.07858666 0.17333351
0.1319003 -0.12572134 0.18333331 -0.19132756 0.07963164 0.012490337 -0.30762613 -0.30816013
-0.045092653 0.46191543 0.052889712 0.2870466 0.122045256 0.12002074 0.013313375 0.23352668
0.07582935 0.11030281 -0.24630708 0.23465951 -0.16693425 0.31324625 -0.20617874 0.028233817
-0.13911222 -0.17585273 -0.0014360299 0.021564834 -0.0793942 0.22014464 0.033603027 -0.10096272

encoder.encoder_blocks.0.attn.in_proj_bias f4 [72]
00000000: 8b12 203d 3c4a f6bd 84bd dcbd 415b 2d3e
00000010: 3449 c83d b8d9 a73d 0dfb 8abd 8073 b43d
00000020: 8258 84bd e124 b43c e0b5 543b 7c3a 00bc
00000030: ea43 17bd af14 c53c d923 d33c 9237 eb3c
00000040: fb55 353d 009a c2bc 289d c7bd 7629 60bc
00000050: 8ceb 28bd 4410 663d 3cab 18bd efb9 bd3c
00000060: 3157 c0bb 7238 ff3b bd1f baba b8b7 03bb
00000070: 9a8b 8fba ac42 383c 9427 4e3c 9ed4 003c
00000080: dff9 be3b 639c 13bc 0c50 dc3b d977 28bb
00000090: a653 b0bb e2a0 2ebc e487 12bc 08d5 c73a
000000a0: b770 f93a da55 7ebb 80d8 693b 092e ebbb
000000b0: 1abf 9fbb 6db9 d6bb 1547 acbb a2dc 083c
000000c0: 30a7 93bc 854b 62bd 3f2a ef3c eb03 f33d
000000d0: 260b 04bc b1ba bc3c 573d abbc 8f69 b73c
000000e0: 428e 39bd 8c07 6bbc 5175 b63d b976 85bc
000000f0: 62ba 19bd c9de 673b bcbb 95bc a693 7fbd
00000100: 6086 52bb 54ed b0bc 69cb cdbc 548f 863b
00000110: ae88 143d cbe0 a33b ace8 39bb 1baa 0b3c
0.039080184 -0.12025878 -0.10778335 0.16929342 0.097795874 0.081958234 -0.067861654 0.088110924
-0.06462194 0.021990241 0.0032457039 -0.007826444 -0.036930002 0.024057714 0.02577393 0.028713021
0.04427145 -0.023755074 -0.09746772 -0.01368176 -0.04124026 0.056167856 -0.037272677 0.02315995
-0.005869769 0.007788711 -0.0014200133 -0.0020098519 -0.0010951639 0.011246365 0.012582678 0.007863192
0.005828127 -0.0090094535 0.0067234095 -0.00257062 -0.0053810654 -0.010658475 -0.008943532 0.0015245983
0.0019030784 -0.0038808496 0.0035682023 -0.0071771187 -0.004875076 -0.006552866 -0.005257497 0.008353384
-0.018024057 -0.055247802 0.02919495 0.11865982 -0.008059299 0.02303824 -0.020903273 0.022389201
-0.045301683 -0.014345061 0.08909095 -0.016291963 -0.037531264 0.0035380593 -0.018277995 -0.062396668
-0.003212355 -0.021597542 -0.025121408 0.0041064415 0.03626316 0.0050011626 -0.0028367443 0.008524443

encoder.encoder_blocks.0.attn.out_proj.weight f4 [24, 24]
00000000: d1b3 f9bd 8b79 50bd e395 6f3d 7142 29bd
00000010: 4427 4f3d 2009 6a3d 950a 2e3d c8f3 0abe
00000020: 7722 843e e698 25bd 9d25 cbbb 6d63 23be
00000030: 2d87 b03c 9019 10be 28c4 4dbd 4394 ef3c
00000040: b938 353e d1d4 02be 8ea6 7b3e 6b6d 91bd
00000050: 1d42 853e e4b7 05be 528e 48bb 55da 8bbe
00000060: f685 533c 1b4c 93be 25c1 213e 7d2b df3d
00000070: 77fe be3a 2904 e1bd bba5 b0bd b074 23be
00000080: 629e 3a3e acff 17be fb66 073e ebb9 8ebd
00000090: 3a23 3dbd 67b3 323e 0e6c a1bd 103c 88bc
000000a0: f1bf d13c c3c9 6dbe 8b6a eabd 6b6f 853d
000000b0: 7f41 c7bd 2741 463d 58de 383e f141 8abd
000000c0: 46fc 07be 50c3 f2bd d904 923e 5a4f 0ebd
000000d0: 8e22 0a3b b6c0 eebd e6fe 6ebe b1b3 223e
000000e0: 9beb e8bd 46e0 8e3c a3d3 bd3d f364 11be
000000f0: 200a 3a3d b003 a03d eaf8 2dbe fb97 063e
00000100: f226 273d 8671 ebbd be1e 073d aa32 8f3d
00000110: 8a11 5b3d fd09 8e3d 4ef7 b23d 2769 a5be
00000120: 5655 bd3c 1ec3 d3bd 16f6 37bc 100e d73d
00000130: 4c50 55bd 2766 02be b33e abbd 9022 bb3b
00000140: 5794 3a3d e54f 5e3e b766 a03d 345e bb3c
00000150: bb85 6c3e 333b 3abd 0877 853e c488 e73d
00000160: c938 22be 96f0 bb3d c16c 75be 62e5 efbd
00000170: 6281 263e 95a5 563e 197f bcbe 151e 173e
00000180: 2329 1dbe 67b7 293e f7cb 6d3d f4e7 4abc
00000190: e6c5 0d3e 869d 9ebd 428f 61bb f8ec 0b3e
000001a0: 69cb 443c 85a2 5f3d a22f 45be 5e65 ff3d
000001b0: 4ead d6bd 9453 943d a4f7 58bd 9689 ec3d
000001c0: 4663 a1bd ce84 563d cd19 4a3b ccfb 423e
000001d0: f8be 11be df02 413d 35e1 193e c1b8 be3d
000001e0: 3f77 e9bb 673d 6dbc 47b1 413e 14f4 1c3c
000001f0: eb63 0c3e 33ef e0bd 86d2 273d d92e 6c3d
00000200: 5554 f8bc d73d a43d d3fd 97bd f41f d0bc
00000210: c19b cd3d 0e5c 31bd aa57 943b ac9e 523e
00000220: 638e 83be 0c0f 683d a233 29be 6b5d 59bd
00000230: fdcd 4ebc 9c88 043e 760d 153b d7d3 7e3e
00000240: 437b ff3b 73da bc3d d2ba 523d 093d 1bbe
00000250: c84e d0bd 15cc c3bd acd8 0d3e 1098 773d
00000260: 3a03 05be f003 ebbd bd5d fe3d 131d 023d
00000270: 3177 6dbd 0c82 e43d 8584 a7bd ae6f 893c
00000280: b9bd 1ebe 36cc 8ebd c9a1 5f3e ec9d 5e3e
00000290: ee8f 12be 4a4b 003e 0c50 433e cba1 33b9
000002a0: 1681 1abe f276 dc3d b702 213e d5b0 f73d
000002b0: 9179 ae3d fff0 88bd 55ee 36be 9fa4 173d
000002c0: 0986 61bd 78ab c6bd 51e2 b23c 1408 5a3d
000002d0: 3de9 cd3d 4fe7 26be 94f6 a63d 404a 45be
000002e0: a759 ad3d 9179 aa3d 4cbe ce3d 224a 20bc
000002f0: f29e 283e cfde 99bd 80dd 31bd 946f 573d
00000300: b6fa 0f3d aefa 313b 6000 103d de4e 9c3d
00000310: 5e87 c8bd 3b43 81be 5f14 683e cbdc 34be
00000320: c53f d7bd ebda 133e b222 1f3e e438 3dbe
00000330: 6165 fb3d 2ba9 f0bd 0f24 0b3e e621 063e
00000340: 230d 013e 6362 b63d 1495 69be 086d c2bd
00000350: eadb 043e e54e 3e3e 0375 8ebc 7a89 1bbe
00000360: 2340 3abe 43ac 1e3e 9be5 03be 029b a8bd
00000370: a3a7 a6bd cc58 f13d 0c77 2e3c 330d 043e
00000380: a527 04be aef2 bc3d 8eea 9e3d 743c da3d
00000390: 7bdc 09be 759a cbbd d0b3 53be c0d1 3cbe
000003a0: 9e6b fe3b cf26 a8bd 1730 bbbc ef14 fabd
000003b0: 4437 da3c 8bc1 6f3c 51ff b03d d78f 7c3a
000003c0: e9f0 6f3e d744 3f3e 3bc8 eebd fc34 db3d
000003d0: bf6a e43d d997 9a3d 15a2 f7bb 0c26 bf3d
000003e0: 8c64 16be 302a 08bc 12b5 cbbc bb82 36bc
000003f0: 5045 3c3e 10d1 953d d53c d3bd 6b7a ffbd
-0.121925004 -0.050897162 0.058492552 -0.04132313 0.050574556 0.05713761 0.04249056 -0.13569558
0.25807545 -0.04042902 -0.006199552 -0.15955897 0.021548832 -0.14072251 -0.050235897 0.029245501
0.17697419 -0.12776496 0.24575254 -0.07100948 0.26027003 -0.1305843 -0.0030602408 -0.27315012
0.012910357 -0.28769 0.15796335 0.108969666 0.0014571686 -0.109871216 -0.086253606 -0.15962481
0.18224481 -0.14843625 0.13222878 -0.06969055 -0.046176173 0.17451249 -0.07881938 -0.016630203
0.02560422 -0.23221497 -0.11446103 0.06515392 -0.09729289 0.048401978 0.18053567 -0.067508586
-0.13279828 -0.11853659 0.28519323 -0.034743644 0.0021077725 -0.116578504 -0.23339424 0.1588886
-0.11373063 0.017440926 0.09268882 -0.14198665 0.045419812 0.07813203 -0.16989484 0.13143913
0.040808626 -0.11496262 0.032988302 0.06992085 0.053483523 0.06935499 0.08738576 -0.32306787
0.02311198 -0.1033995 -0.011228105 0.10500729 -0.05207853 -0.1273428 -0.08361568 0.0057109073
0.045551624 0.21710165 0.07832091 0.022872068 0.23097889 -0.045466613 0.26067376 0.11305383
-0.15841974 0.091767475 -0.23967268 -0.11713673 0.16260293 0.20961602 -0.36815718 0.14757569
-0.15347724 0.16573869 0.058055844 -0.0123844035 0.13845024 -0.07744889 -0.0034417664 0.13664615
0.012011387 0.05459835 -0.19256452 0.12470506 -0.10482274 0.07242504 -0.052970544 0.1154968
-0.07880263 0.052372746 0.0030838132 0.19041365 -0.14233005 0.04712188 0.15027316 0.09312583
-0.007124811 -0.0144799715 0.18915282 0.009579677 0.1370999 -0.10983124 0.040972255 0.057661865
-0.03031365 0.080196075 -0.0742146 -0.025405861 0.10039473 -0.04330068 0.004527052 0.20568341
-0.2569457 0.056654975 -0.16523603 -0.053067606 -0.012622354 0.12942737 0.002274362 0.24885498
0.0077966764 0.092213534 0.051447697 -0.15160002 -0.10171276 -0.0956041 0.13852185 0.060447752
-0.12989512 -0.114753604 0.12420223 0.03176601 -0.057974998 0.11157617 -0.08179573 0.016776886
-0.15502061 -0.06972544 0.2183906 0.2173993 -0.14312717 0.1252872 0.19073504 -0.00017131043
-0.15088305 0.107648745 0.15723692 0.12094275 0.08519281 -0.06686591 -0.17864354 0.03702223
-0.055059467 -0.09700674 0.021836432 0.05323036 0.10054252 -0.16299175 0.081525 -0.19266605
0.084643655 0.08323968 0.1009489 -0.0097833 0.16466883 -0.075132005 -0.04342413 0.052596644
0.035151206 0.0027157473 0.035156608 0.0763223 -0.09791444 -0.25246605 0.22664021 -0.17662351
-0.1051021 0.1443898 0.15540579 -0.18478733 0.12275196 -0.11751016 0.13587974 0.13098869
0.12602668 0.089054845 -0.22810775 -0.09493452 0.12974516 0.18584783 -0.01738978 -0.15189162
-0.18188529 0.154954 -0.12880556 -0.082326904 -0.08137443 0.11784515 0.0106485 0.1289566
-0.12905748 0.09225975 0.077595815 0.10656062 -0.13463013 -0.0994157 -0.20674062 -0.18439388
0.007764294 -0.08210527 -0.02285008 -0.12211024 0.02663768 0.014633547 0.08642448 0.0009634471
0.23431744 0.18678604 -0.11659285 0.10703465 0.11153173 0.07548494 -0.0075571635 0.09333429
-0.14686793 -0.0083108395 -0.024866614 -0.011139567 0.18385816 0.07315266 -0.10314337 -0.12474521

encoder.encoder_blocks.0.attn.out_proj.bias f4 [24]
00000000: 95d0 9b3b 940e 913d 8ed5 493d 325e 453c
00000010: 7954 15bc 0276 6d3b d58d e5bc 8f44 5cbd
00000020: 4118 e73c 7ea7 153b 4ed6 903a 653c b9bc
00000030: b27a d4b9 746a 523d 349c 5c3d 4d58 2fbe
00000040: 6e93 87bc e420 9dbc 8c96 86bc 549d 11bd
00000050: efb4 623c 37dc 393c fd61 d63c c77a 9f3b
0.0047550895 0.07082859 0.049275927 0.012046384 -0.009114378 0.0036233668 -0.028021732 -0.05377632
0.028209807 0.0022835429 0.0011050196 -0.022611806 -0.00040527206 0.051371053 0.053859904 -0.17123528
-0.016549792 -0.019180723 -0.016429208 -0.03555043 0.013837083 0.011344007 0.026169771 0.004866931

encoder.encoder_blocks.0.norm1.weight f4 [24]
00000000: 215b 783f f8bd 7a3f 682e 653f 8e5d 723f
00000010: c8c4 7c3f 1e62 8d3f 2e0d 863f ecaa 713f
00000020: 3883 743f a408 593f d86b 483f 1dc8 863f
00000030: eb20 793f 2491 883f 72bc 843f 0bac 813f
00000040: ff17 843f 1d66 893f ee2e 863f 8aae 7c3f
00000050: 6906 7f3f f044 833f a11d 8a3f 1283 833f
0.9701405 0.9794612 0.89523935 0.94674003 0.98737764 1.1045568 1.0472772 0.9440143
0.95512724 0.8477881 0.78289557 1.052982 0.97315854 1.0669293 1.0370009 1.0130628
1.0319823 1.0734288 1.0483072 0.98703825 0.99619156 1.0255413 1.0790292 1.0274374

encoder.encoder_blocks.0.norm1.bias f4 [24]
00000000: 9a97 89bc d37b f2bc a956 393c 707b 243c
00000010: c5e3 273d cb31 b2bc bdb2 6abd 1745 52bd
00000020: c98e 083d 85c9 32bd 609c a1bc 1022 b8bc
00000030: 200b a1bc bbf9 40bd 22bc 02bd 9f86 b7bb
00000040: 1297 a2bb 5367 f73c 7014 4abc 3793 1f3d
00000050: 9ca5 373d a118 0d3d 6493 afbb 2379 74ba
-0.016795922 -0.02960006 0.011312165 0.010039195 0.040988702 -0.021752259 -0.057299364 -0.05133542
0.033339296 -0.043649215 -0.019727886 -0.02247718 -0.019658625 -0.04711316 -0.0319177 -0.005600765
-0.0049618566 0.030200636 -0.012333974 0.038958754 0.04483567 0.034447316 -0.0053581465 -0.0009325912

encoder.encoder_blocks.0.ff.0.weight f4 [24, 24]
00000000: 2e19 a63d feff 153e 5f63 d8bd 2006 c1be
00000010: e5e2 34be 274a 633e 1d17 eabd 6842 453e
00000020: 31cb babd 33cc 813e 176a 9a3c 149c 31be
00000030: f2b7 ab3d f4ab 3ebc 98a9 403d 0a50 e93d
00000040: a0a0 313e ebdb 353e 0446 663e 314c 183c
00000050: c782 09be 8bab 32be e687 733d d393 463d
00000060: 607d 2cbe cc41 b9bd c73f ecbd 6bb5 8d3d
00000070: ec1a 90be 8f81 823e 43ee 1c3e 7a7c 7f3e
00000080: c645 99bd 31c2 2dbd f9b1 863d 627d 91bd
00000090: 8e33 6ebc b18c 1bbe 54fe 463e d1f5 813c
000000a0: 656d 4ebe c43f 94bc 3419 fcbb 9ce6 c1bd
000000b0: eb41 c43d b363 8fbd 64e3 8ebd 250c 8cbe
000000c0: ff9a 40be c699 fa3a d42b 473e 4dd8 c2bc
000000d0: 3562 c4bd 498c 873d d7e0 253e 4b66 f4bc
000000e0: e648 513d 1476 573e 7393 123e fa09 93bd
000000f0: eaec 183e 17ee f83c 092a 183e 7fb8 16be
00000100: 48da 35be 0324 8cbe a4a3 f2bd 3331 13be
00000110: dad1 95bc 9a2a 42be 3df9 393c 85b7 f9bc
00000120: 8dd1 4dbe 1b6e 0cbe 8ba2 45bd 114d 343e
00000130: 2261 febd c69f 693d b4db 183e affa 183e
00000140: d142 2e3e 2e1b a839 f23b 42bd 16ab f63c
00000150: f9c1 aebb a477 0d3e 4dd6 86bd 28c1 60bc
00000160: 92fd 35be 503c 9abd 3f08 8cbd 1f41 56bd
00000170: 934a 36be e7d3 bbbe 75fb e93d 792e c2bd
00000180: eb3f 35be f8c0 8b3c 5b45 693e e051 d83e
00000190: a6e2 8fbd edeb 88bd eb09 2abe a9dc 1b3e
000001a0: 2840 033e e9ea 383d e7fb 18be 7b45 58be
000001b0: bf49 2739 2ce7 903d 918e ae3d e391 d83d
000001c0: 2216 1ebd 1f20 183d 89ec 1f3c 75bc 97bc
000001d0: 9194 603c c824 e93d 5a82 79be a7fa 24bd
000001e0: 6e3e 963e f1b7 e2bd f2b0 673d abbd 87be
000001f0: 1ca0 55bc cd27 523d 8035 e6bc 0bdf c3bd
00000200: 4c42 ef3e 8b3f 973e 3e5c 10be f9ab 483d
00000210: 91c4 adbd ca22 a4bd ab88 95be 344a 46bd
00000220: ca74 b33d fdeb 52be 11d5 2ebe bf29 1abe
00000230: 515a bd3d f384 ca3d b9eb d2bc a3ec 10be
00000240: 85bf 47be d79f 433e 32ae e83d 2fee cb3d
00000250: b331 ca3d ae22 473d b820 15be fd6b 57be
00000260: 8335 203e a677 0bbe 63fc 1a3e 997c 4a3e
00000270: bb3a e8bd 5a5e 87be 015a 3c3e f2a4 9fbd
00000280: 87a8 0bbe 902b 093e fe98 85be 6eef 253c
00000290: ba62 b6bc 884a 113e 82a9 20bd ecb6 383e
000002a0: d419 17be 12af 3dbe b0a4 f3bc 5daf e03c
000002b0: 639f 4bbe fdc5 c43d de6e 2ebe be0f dabd
000002c0: 588f 12be 7c51 5ebe 83c7 95bc c07a 0cbe
000002d0: 08f6 233e 34a7 88be 90c8 69bd 2fc3 60be
000002e0: 60ae f6bd fef1 913e a27b c6bd b4de cdbd
000002f0: de0e 9bbd b2f2 0dbd 4b1a 2a3e 5b67 30bd
00000300: 3371 08bc f84f e9bd 871d 343d cb35 b2bd
00000310: a6f7 24bd 73bc ae3d 241f 0abe f517 f7bc
00000320: 37f8 ce3d 83d5 73bc 1a72 8e3d 2189 44bb
00000330: a4cc 953d c57a 9d3e 9f18 3abe 1421 dfbe
00000340: 6f18 b83e 95fd 563e 818e 84bd f957 e63d
00000350: 09df 003d 5341 103e c677 27bd b1ec 89be
00000360: d189 153c 83a1 8fbc d048 04bd 778b a2bc
00000370: 9bff 62be d74e 213d 7fd1 173e cef5 143e
00000380: 114f 6c3d 2f63 a93d 5cbf 00be 7836 2fbd
00000390: ff45 943b 560e 1fbe d35d c83d b079 18bc
000003a0: dbe1 273d 39de f9bd 1daf 48be 0496 80bc
000003b0: 5ddf 26be b484 3abe 049a 7b3d b113 a73d
000003c0: 92f7 10be eb0b 493e 80e3 4e3e fc2e ecbd
000003d0: 1d40 40be 0499 663e 3df0 76bc 96f3 4e3d
000003e0: fd17 6e3e 377f e0bc 8c05 083e 70f0 a4bd
000003f0: 6848 883e c959 eb3d f9c7 1abd 2fe6 33be
0.081102714 0.14648435 -0.105658285 -0.37699986 -0.17664678 0.22196256 -0.1143019 0.19263613
-0.09120787 0.25351104 0.018849416 -0.17344695 0.08384694 -0.0116376765 0.047036737 0.11392219
0.1734643 0.17759673 0.22487646 0.009295509 -0.13428794 -0.17448251 0.059455775 0.04848082
-0.16844702 -0.09045753 -0.11535602 0.06919368 -0.2814554 0.2548947 0.15325265 0.24949828
-0.07484011 -0.042421523 0.06576914 -0.07103993 -0.014538659 -0.15190388 0.19432956 0.015864285
-0.20158918 -0.018096812 -0.007693434 -0.094678134 0.09582885 -0.07001438 -0.06976965 -0.27353016
-0.18809126 0.0019119314 0.19450313 -0.02378478 -0.09589044 0.06618554 0.16199051 -0.029833933
0.051094912 0.21041137 0.1431406 -0.07179637 0.14934126 0.030386968 0.14859785 -0.14718817
-0.17759049 -0.27371225 -0.11847618 -0.14374237 -0.018288542 -0.18961564 0.011350927 -0.030483017
-0.20099469 -0.13713877 -0.048250716 0.17607524 -0.1242087 0.057037137 0.1492756 0.14939378
0.17017676 0.00032063707 -0.04742045 0.030110877 -0.005333182 0.1381517 -0.065838434 -0.013717927
-0.1777251 -0.07531035 -0.0683751 -0.052308198 -0.17801885 -0.36685106 0.11424915 -0.0948152
-0.17700164 0.017059788 0.22780363 0.42249966 -0.07025652 -0.06685624 -0.16605346 0.15220894
0.12817442 0.045145903 -0.14939843 -0.21120255 0.00015953834 0.070753425 0.08523286 0.10574701
-0.038595326 0.037140008 0.009760984 -0.01852248 0.013707296 0.113839686 -0.24366131 -0.040278103
0.29344505 -0.1107024 0.056565233 -0.26511893 -0.013038661 0.05130749 -0.028101683 -0.095640264
0.46730268 0.29540667 -0.14097688 0.04899213 -0.08484758 -0.08014448 -0.29205832 -0.04841061
0.0876251 -0.20597835 -0.17073466 -0.15054987 0.09245742 0.09888639 -0.025747167 -0.1415277
-0.19506653 0.19103943 0.1136135 0.09957539 0.098727606 0.048617058 -0.14563262 -0.21037288
0.15645413 -0.13619861 0.1513534 0.19774093 -0.11339327 -0.26439172 0.18393709 -0.07795133
-0.13638507 0.13395524 -0.26093286 0.010127885 -0.022263873 0.14188588 -0.039224155 0.18038529
-0.14755946 -0.18523815 -0.029741615 0.02742737 -0.1988502 0.09608076 -0.1703448 -0.10647534
-0.14312494 -0.21710771 -0.018283611 -0.137187 0.16011822 -0.26690066 -0.057076037 -0.21949457
-0.12044978 0.28504938 -0.0969155 -0.10052243 -0.07571195 -0.03465528 0.16611592 -0.043067317
-0.00832777 -0.11392206 0.043973472 -0.087016664 -0.04027524 0.085320376 -0.13488442 -0.03016279
0.10105937 -0.014882448 0.06955357 -0.0029988962 0.07314423 0.30757728 -0.18173455 -0.43579924
0.3595614 0.20995171 -0.06472493 0.11247248 0.031462703 0.14087419 -0.04088571 -0.26938394
0.009127096 -0.01753307 -0.032296002 -0.019841893 -0.22167818 0.03938183 0.1482601 0.14546892
0.05769259 0.08270871 -0.12572998 -0.042776555 0.0045249457 -0.15532812 0.097835205 -0.009306356
0.040986877 -0.12200589 -0.1959805 -0.015696533 -0.16296144 -0.18214685 0.061426178 0.08158053
-0.1415694 0.19633453 0.20203972 -0.11532399 -0.18774457 0.22519308 -0.015071926 0.05052527
0.23251338 -0.02740441 0.13283366 -0.08053672 0.26617742 0.114917345 -0.037788365 -0.17568277

encoder.encoder_blocks.0.ff.0.bias f4 [24]
00000000: b588 2bbe 8c0d 24be be96 6abc 137e 0abe
00000010: 2d0b 6fbe 54dc 583d 5527 d1bd 120e 063e
00000020: d32b 9e3c 31e4 36bd d99f c13d 373e 31be
00000030: 1070 ce3d f5e9 60bd d143 16be 5bd6 013e
00000040: dcdf 73bc fd4e 50be 3975 103e ba8c 2e3c
00000050: 71fe 2ebd bc94 fb3d 40f5 26ba 3c2e d53d
-0.16751368 -0.16020793 -0.014318166 -0.13524656 -0.23344107 0.052944496 -0.1021258 0.13091305
0.019308006 -0.044651214 0.09454317 -0.1730889 0.10079968 -0.05491062 -0.14674307 0.12679426
-0.014884915 -0.20342632 0.14107217 0.010653669 -0.042723123 0.12284228 -0.00063689426 0.10409209

encoder.encoder_blocks.0.ff.2.weight f4 [24, 24]
00000000: c258 5d3e 257a ef3d e291 8a3e 8865 8f3e
00000010: a4c5 21be e40b 70be 5482 fbbc 84fe 013e
00000020: f2e1 0cbd de17 153e f68f 793e 6038 8cbe
00000030: e967 31be 3159 f0bd 74cb 63be 6875 00be
00000040: 34f7 39bc a89d dfbd 4058 1ebe 919d 9cbe
00000050: e32d 97be 8058 4b3e 5c34 ecbd bede 443e
00000060: 5099 21bc 27f2 2cbd 3b84 1c3e 12b3 193e
00000070: 5689 4cbe 9863 82be df31 6fbd 328a 54bd
00000080: 7ca5 6b3d 5913 fbbc a114 1ebe 36cc 363e
00000090: e540 04be 8671 b03e 9404 573d 48a6 c1bb
000000a0: e3fd 813d f089 023d 880a aabe 5a69 aa3e
000000b0: 3ac9 593e 62c5 08bd fdb4 95bd 79b4 463c
000000c0: 6712 6dbe 11be cd3c 73d6 3fbe ccd5 fc3d
000000d0: 5127 123c bb27 f33d a205 993d e529 98bd
000000e0: 72d3 863e 9e96 11be 7554 003e 2231 ab3d
000000f0: b73b a5bd 6573 1cbe aad9 04be 20ec 42be
00000100: 76c5 be3d 656f b53d 235c c63d df1e ef3d
00000110: a739 a0bc c61f 8dbd 87ad 06be e9d8 28bd
00000120: 1788 61be b3e6 8bbe c252 32bd f934 65bd
00000130: 543d 74bd 182d c03d 9c67 2ebd d672 7c3e
00000140: 8861 423e 0932 fd3b ed43 443e 5c9a 143e
00000150: d955 83bc 0f33 b03d a012 f3bd a53c 8fbe
00000160: 455c e8bc c7b6 8ebe ff43 86bd 835c 6dbe
00000170: 558e 5abd d09c 20be 97e1 e7bd a835 813e
00000180: bf58 293e e39e 5a3d e09a 373e af2f 38be
00000190: f5b8 d0bd cc89 693d d1b2 323d 92b1 323b
000001a0: 2863 c33d a93d e2bd 3a5a ba3d 9253 fb3d
000001b0: 61fd 103e 4a8d c53b 244e 5fbd 3812 313e
000001c0: 86f4 0e3e e8ba a93e 7b19 a1bc 511f 67be
000001d0: aed7 833d 45d8 ba3d a6a9 d13d 546e 10be
000001e0: 8883 843d e9ea 203e 212a b03d 1b1c fcbd
000001f0: 0ed3 59be 23f3 20be 60cb 0c3e 7f45 b7bb
00000200: 25d4 b03d 8738 07be 2cf2 9fbd 5a6b 2fbd
00000210: 434d 603e a091 493e 210b 9bbe f9aa 3fbe
00000220: 0ee6 a93d 47ae 2dbe 558f e33e a45a 5a3e
00000230: 55ae 883d bfdf 00bd d0a3 883d b44c 7d3e
00000240: 280b 7abe 26d7 07be a048 083e 21cf 44bd
00000250: 9aae 19bd 7995 1abd d2a5 a0be 2fb9 92be
00000260: cd77 2d3e 4f6a f43d c1b9 d0bd cb4e 85be
00000270: a3ec 883d 0189 6dbe 1900 21be 34ae 94bd
00000280: affc d0bd 156f 463e 5788 0c3c 4cce ab3d
00000290: b32d 8cbe 9c90 953d dd5c d6bd 8aa7 3bbe
000002a0: c5e0 6e3e ac05 b0be c1a2 7dbe 344f fc3d
000002b0: 459f c73d 5117 5fbd 967b 90bd 561d 86be
000002c0: 80be ff3d 38be f0bd 910a 2fbe ffb0 96be
000002d0: 193b a4bd 8c6b ea3d 9279 c73e a21b f53d
000002e0: 5629 bbbd 7ca5 ea3e 70fb 9ebe 146b 46be
000002f0: 8ec2 383d 896f 103c 1ee8 a8bd 0e44 b3bd
00000300: 385b 42bd 509b 473e ad75 8b3e 2faf 8a3e
00000310: 74d4 8a3e b52d 34bd ed94 2cbe 47fb e3bd
00000320: db41 ccbe 3131 06be 54e8 e13d 1f1f f0bd
00000330: 6e93 723e 41a3 a43e f748 4f3e 3ba9 dcbd
00000340: 52ec 83bd 148e b1bd faff 583e 456b b7be
00000350: 9869 153e 66d4 6f3d 0c01 f03c 14b3 6ebe
00000360: f5f1 643e 1dee 4d3e ce5b 673d ec3b e0bb
00000370: c11a ddbd 0383 03bf fc29 b13c 721e 5dbe
00000380: 4f77 afbb a70d de3c 21d5 773e 9022 363c
00000390: ebc6 803b b714 0ebd 407f e1bd 4e40 88be
000003a0: 1934 bb3e 9d14 293e 6de4 99bd 9fea ecbd
000003b0: 1486 923d cae7 ee3d 9887 283e 2c05 b03c
000003c0: 9d7b 32bc bf39 3e3c 4232 b93c bc91 22be
000003d0: 4a2a 573e 2514 a23e 17cc d73d daab 563e
000003e0: 4470 873e 737e 733d 2687 c7bd b194 9a3d
000003f0: b4d4 a3be 5b26 473e 733c 3f3e af1c 723e
0.2161589 0.11693219 0.27064425 0.2800715 -0.1579805 -0.23442036 -0.030701794 0.12694746
-0.034395166 0.14559886 0.24371323 -0.2738676 -0.17324795 -0.11735762 -0.2224558 -0.12544787
-0.011350442 -0.109187424 -0.15463352 -0.30588964 -0.29527196 0.19857979 -0.11533424 0.19225594
-0.009863213 -0.042223122 0.15284817 0.15009716 -0.19974265 -0.2546661 -0.05839717 -0.051889606
0.057530865 -0.030648874 -0.15437557 0.17851338 -0.1291538 0.34461612 0.0524946 -0.005909715
0.06347253 0.03186983 -0.3321116 0.33283502 0.21268168 -0.033391364 -0.073099114 0.012127989
-0.23151551 0.025115045 -0.1873415 0.12345466 0.008920507 0.11872812 0.074717775 -0.07429866
0.26333195 -0.14217612 0.12532218 0.08358981 -0.0806803 -0.15278395 -0.12973657 -0.19035387
0.093150064 0.088591374 0.096855424 0.1167581 -0.01955874 -0.06890826 -0.13152133 -0.041222487
-0.2202457 -0.27324447 -0.043535955 -0.05595872 -0.0596288 0.09383601 -0.04257928 0.24653181
0.18982518 0.007726912 0.19166537 0.14512008 -0.016032146 0.08603489 -0.11868787 -0.27975956
-0.02836431 -0.27873823 -0.06555938 -0.23179822 -0.053358395 -0.15684819 -0.11322325 0.2523625
0.1653776 0.053374182 0.17930174 -0.1798694 -0.10191528 0.05701618 0.043627564 0.0027266485
0.09540397 -0.11046917 0.090992406 0.12271799 0.14159156 0.006028806 -0.05451788 0.17292106
0.13960466 0.3315041 -0.01966547 -0.2257054 0.06437622 0.091232814 0.10237436 -0.14104587
0.064704 0.15714611 0.086017855 -0.12310048 -0.21271917 -0.1571775 0.13749456 -0.0055930014
0.08634213 -0.13205157 -0.078098625 -0.042826988 0.21904473 0.19684458 -0.30281928 -0.18717565
0.082958326 -0.16961013 0.4444529 0.21323639 0.06673876 -0.03146338 0.0667187 0.24736291
-0.24418318 -0.13265666 0.13308954 -0.048049096 -0.03752003 -0.037740204 -0.3137651 -0.2865691
0.16940232 0.11934339 -0.1019168 -0.26036677 0.0668576 -0.23196794 -0.15722694 -0.07259789
-0.102044456 0.19378312 0.008577428 0.083889574 -0.27378616 0.07302973 -0.10466931 -0.1832563
0.2332793 -0.34379327 -0.24769117 0.12319794 0.09747175 -0.054465596 -0.07054822 -0.26194257
0.12487507 -0.11755031 -0.17093875 -0.29431912 -0.080190845 0.11446294 0.38959938 0.11968161
-0.091387436 0.4582938 -0.31051207 -0.19376785 0.045107417 0.008815655 -0.08247398 -0.08753215
-0.047450274 0.19492841 0.27238217 0.2708678 0.27115214 -0.043988902 -0.16853686 -0.11131912
-0.39893994 -0.13104703 0.11030641 -0.11724686 0.23689052 0.32155803 0.20242678 -0.10774466
-0.06441559 -0.086696774 0.21191397 -0.35824028 0.14591062 0.05855217 0.029297374 -0.233105
0.22357924 0.20110364 0.056484036 -0.0068430807 -0.107961185 -0.51371783 0.021626465 -0.21593645
-0.005354799 0.02710612 0.24202396 0.011116639 0.003929963 -0.034687724 -0.11010599 -0.2661156
0.36563185 0.1651177 -0.07514272 -0.11568188 0.071544796 0.11665304 0.16457975 0.021486841
-0.0108937295 0.011610447 0.022606973 -0.15875906 0.21012226 0.31655994 0.10536974 0.20963994
0.2645284 0.059446763 -0.097425744 0.07547892 -0.31998217 0.19448225 0.18675403 0.23643754

encoder.encoder_blocks.0.ff.2.bias f4 [24]
00000000: 6cf7 4fbe 70a1 4bbe ab0b fcbc f644 e13c
00000010: 9451 3cbc a53b 54bd cd02 763d ba93 d53d
00000020: 2c82 e83d 4308 f53d 1692 65be cecd a23d
00000030: 2321 783c b945 1c3e 5301 0c3e 1636 3ebd
00000040: 31fe 853d 7f23 2f3e 9467 ac3c 4e83 6ebd
00000050: 213a 483e 7b94 4a3e 9daa 49be 1968 f03d
-0.20309228 -0.19885802 -0.030767282 0.027498703 -0.011494059 -0.051814694 0.060061265 0.10428567
0.11352953 0.119644664 -0.22419009 0.079494104 0.015144619 0.15260972 0.1367238 -0.0464383
0.06542624 0.17103384 0.021045484 -0.05823069 0.19553424 0.19783203 -0.1969399 0.11738605

encoder.encoder_blocks.0.norm2.weight f4 [24]
00000000: e990 863f 4a60 883f 561a 683f b4b9 6c3f
00000010: d319 7f3f fdeb 8c3f 09ca 883f d48e 793f
00000020: 7696 803f d9f4 683f eb34 6c3f 7bfc 813f
00000030: a18d 853f 21d0 8b3f b109 883f 33e1 8a3f
00000040: 24f4 833f 35d8 8b3f 8f4d 843f 0b0f 853f
00000050: 9209 803f 32aa 813f 74a2 893f 61fd 813f
1.0512973 1.0654385 0.90665185 0.9247086 0.9964878 1.1009518 1.0686656 0.97483563
1.0045917 0.9099861 0.92268246 1.0155176 1.0433847 1.0922891 1.0627958 1.0849975
1.0308881 1.0925356 1.0336169 1.0395216 1.0002921 1.0130064 1.0752702 1.015545

encoder.encoder_blocks.0.norm2.bias f4 [24]
00000000: 4109 28bc 1fca d03b c9fa de3c a00b 6ebb
00000010: 31e4 a13c 55f9 143c ada7 4fbd 8200 81bd
00000020: fafe 223d d8e7 4abd 5405 40bc f913 0d3c
00000030: 3534 b13b eb13 27bd 7ae5 0b3c ddc6 6dbc
00000040: 844f 6d3c 2d95 e33c 4b78 f6bb 4276 d73c
00000050: d36f e63c 7105 d53c 3c57 3d3b 2fa9 29bc
-0.010256113 0.006371751 0.027219193 -0.0036322847 0.01976213 0.0090926485 -0.050697017 -0.06298925
0.039793946 -0.04953751 -0.01172002 0.008610719 0.005407835 -0.04079048 0.008538598 -0.014512745
0.01448429 0.027781093 -0.0075216643 0.026301507 0.028129494 0.026003571 0.0028891107 -0.010355278

encoder.encoder_blocks.1.attn.in_proj_weight f4 [72, 24]
00000000: fe4a 603e e85d 903d 3cab 393e 51cd 81be
00000010: cbab 4f3d fa99 b43e 17b8 283e 3d18 2fbc
00000020: 04e2 563e e05c 2bbe ddca 963d 841d 97be
00000030: dd44 14be 948b 053e bbc6 07be 20c2 3d3e
00000040: 883b b7be 5fa1 e23d cb0d b8be 337b 9c3d
00000050: 040b f1bd 207e 12be cbc9 29be 705b 563e
00000060: 767c 9dbe bb1f 903c aeb3 52be ae17 27be
00000070: c064 61bd d840 35be 71a8 873d eca3 903c
00000080: 9984 79be b21d 46bc 6155 293e 08ac fd3d
00000090: 5f04 81be 34bc b0bd 9918 71bd ee41 c33e
000000a0: b887 c7bd 6f72 2e3d 0760 eabd 5d1e 00bc
000000b0: 8e41 ef3d 86f0 cb3d 859d ad3c 90c4 a7bd
000000c0: 0841 0bbe 4a05 96bd 8de8 e43d 487c 703e
000000d0: 58b2 b23e 1cf3 27be e90a 90bd 86d9 86be
000000e0: 8d5d 42be e8d3 89bc 1693 90be 38d2 3dbc
000000f0: 05b0 88bd 018a 0dbe 5b61 20be c4dd 113d
00000100: 13a9 e5bd a33d 28bd fc00 5f3e cc12 3dbe
00000110: 991a 843c e933 2f3e 99dc 4e3e 1c71 3c3e
00000120: 9930 0c3e 1481 2abe 8fb0 6bbe 7b09 5c3e
00000130: 2779 06be 817d 7fbe 2656 933d 910a febd
00000140: 741b fe3d 37b0 003e 599e 87be 279e 5cbe
00000150: 1574 20be a3d1 633d 369e 3c3d 0a03 de3d
00000160: 2425 923e abbe a13e 3fb1 63bd 8a2a 69be
00000170: 3da4 acbd 6ec7 7c3e fc4f f93d 5419 ba3d
00000180: 814a c03d 678f b7be 781b 94bd 439a 9abd
00000190: adcb fa3d 2e02 903e c6eb 3a3c 5ac7 303b
000001a0: 3175 0cbd 8e72 2ebe d853 c33d 1f05 4bbe
000001b0: bd28 c93b 04ab 2f39 1b75 6f3d 2533 a5bd
000001c0: e245 d2bd 9e27 9dbe d05a 9cbc f200 68be
000001d0: 3890 803c 5f5e 0b3e adf2 c4bd 1445 813e
000001e0: 2718 59be 0cad a23e 2ce4 b1bd f334 a23e
000001f0: 76d0 7bbe b2c3 b0be 9e75 e6bd cae5 0d3d
00000200: 43a9 773d 6f97 1abc 7c59 8fbe d0b7 cf3b
00000210: c224 f53c 5036 adbd bf26 2c3e 536d 3d3d
00000220: 3b4a 54be 02f3 78bd 773b 6c3e bd0b 093e
00000230: b821 1c3e ea0c 35be 7498 933b 9a45 863c
00000240: 49e7 003d a1ac 74bd 8ec1 5b3d 6a6b 353e
00000250: ec08 153e c0df c1bd 72b0 6bbe 2ee8 823e
00000260: 85cf a13d 3925 9e3d 2a12 983e c700 1ebe
00000270: 2168 7b3e 5dee 663e 638d 583e 0e62 6fbe
00000280: af18 483e dc2c 98b9 f2b9 57be cb24 6d3d
00000290: 7f37 76bc a994 bb3d daeb 09be 1471 27bc
000002a0: 186b 623e d3c7 47be ed12 913e 734d 0fbe
000002b0: fe49 e03d e26f 393e a9db 1fbd 0e73 753d
000002c0: d2b0 56bd be98 b9bd 1b5a a33d b25b fa3d
000002d0: 90fc c93d 72c9 2ebe 949f 8bbe 7961 d9bd
000002e0: f436 8e3e fcbd 313e c86a bcbd 56f1 c43c
000002f0: fb69 7ebe b849 443d 9a9a 5c3e 101c d33d
00000300: faf6 5bbd e43c a8be e293 06be 7b44 103d
00000310: e341 bbbd f0ee 19be 855c a83c b5cf 17be
00000320: 5772 54be 0c56 34be 0447 813e 0f4f 1b3e
00000330: 7806 8bbe 0d4e 8dbd ad93 2abe 77d6 ee3d
00000340: 4840 2e3e 8eea ab3e f362 b63d 1025 563e
00000350: 7c69 643e fa0a 5a3d ce0c 373e d5f0 7ebe
00000360: c124 413e 5df1 963e d40a 2fbe 65db 81bd
00000370: 6825 8fbd d9ed b5bc ece3 c1be 9e9b 72be
00000380: 1564 45bd 7eea 4a3e bd39 a63d bb1e 193e
00000390: b5f6 953e 4c05 3b3e c350 8a3d 2100 8b3e
000003a0: 8e03 493e a686 45bd 5b3e 183e be0a 87bc
000003b0: 47a2 833e 80ca 333e 7e83 853d 8cfd 97be
000003c0: e011 97ba cb94 d33d 1447 303c d84a 67be
000003d0: 2898 973e ae69 93bd 7b56 91be 8d54 95bd
000003e0: dc42 9cbd e124 62be 4882 93be 2092 2bbe
000003f0: 1c7b 023f ecfa a9be ec46 b8be 6863 bd3d
0.21903607 0.07049161 0.18131727 -0.25351956 0.050700944 0.35273725 0.16476475 -0.010686931
0.20984656 -0.16734648 0.07362912 -0.29514706 -0.14479394 0.13041526 -0.13259403 0.18531084
-0.35787606 0.11065935 -0.35948023 0.07640686 -0.11769679 -0.14305925 -0.16580884 0.20933318
-0.3075902 0.017593255 -0.20576355 -0.16317627 -0.055027723 -0.17700517 0.066239245 0.017656289
-0.24366988 -0.012092041 0.16536476 0.12386328 -0.25198647 -0.08629647 -0.05886135 0.38136238
-0.09742683 0.0425896 -0.11444097 -0.007819739 0.116824254 0.099579856 0.021193275 -0.08191788
-0.13599026 -0.073252276 0.11177168 0.2348491 0.3490169 -0.16401333 -0.07033331 -0.26337832
-0.18981 -0.016824678 -0.28237218 -0.011585765 -0.06674198 -0.13822176 -0.15662138 0.035611883
-0.11213889 -0.041074406 0.2177772 -0.18464202 0.016125964 0.17109646 0.20201339 0.18402523
0.13690414 -0.16650802 -0.2301657 0.21487992 -0.13132153 -0.2495022 0.07194166 -0.12404359
0.1240758 0.1256722 -0.26487997 -0.21544705 -0.15669282 0.055619847 0.04604932 0.108404234
0.2854396 0.3159078 -0.055588957 -0.22770134 -0.084297635 0.24685451 0.12173459 0.09086862
0.093892105 -0.35851595 -0.07231802 -0.07548954 0.12245879 0.28126663 0.011408752 0.0026974292
-0.03429145 -0.17035887 0.09537476 -0.19826172 0.0061388896 0.00016753009 0.05846129 -0.08066396
-0.10267235 -0.30694288 -0.019086272 -0.2265661 0.015693769 0.13610218 -0.09616599 0.25248015
-0.2120062 0.3177265 -0.086860985 0.31681022 -0.2459124 -0.34524304 -0.112529024 0.034642972
0.060464155 -0.009435519 -0.2799796 0.006339051 0.029924754 -0.08457625 0.16811655 0.046246838
-0.20731442 -0.060778625 0.23069559 0.13383384 0.15247238 -0.17680708 0.004504258 0.01639061
0.03147057 -0.059734944 0.053651385 0.17716756 0.14554185 -0.09466505 -0.23016527 0.25567764
0.07900909 0.077219434 0.29701358 -0.15429984 0.24551441 0.22551866 0.21147685 -0.23377249
0.19540666 -0.00029025122 -0.21067026 0.057896417 -0.01502788 0.09159214 -0.13468876 -0.010219831
0.22111166 -0.1950982 0.28334752 -0.13994388 0.10951613 0.18109086 -0.039027844 0.059924178
-0.052414723 -0.090623364 0.07976171 0.12224521 0.098626256 -0.17069033 -0.27270186 -0.106142946
0.277763 0.1735763 -0.092000544 0.02404086 -0.24845116 0.047921866 0.21543351 0.10308087
-0.053702332 -0.32858956 -0.1314235 0.035221558 -0.09143426 -0.15032554 0.02055193 -0.14825328
-0.20746742 -0.1761095 0.25249493 0.15166877 -0.27153373 -0.06899653 -0.16657896 0.11662
0.17016709 0.3357739 0.08905592 0.20912576 0.22305864 0.053233124 0.17875978 -0.24896558
0.18861677 0.2948102 -0.17093974 -0.06340674 -0.069895566 -0.022208141 -0.37869203 -0.23692176
-0.04819115 0.19816014 0.081164815 0.14953129 0.29289785 0.1826374 0.06753685 0.27148536
0.19630262 -0.048224114 0.14867537 -0.016484614 0.25709745 0.17557716 0.06519221 -0.29685628
-0.0011525713 0.103311144 0.010759134 -0.22587144 0.29608274 -0.07197891 -0.28386292 -0.072915174
-0.0762994 -0.2208438 -0.28810334 -0.16754961 0.509691 -0.3319925 -0.3599161 0.09247476

encoder.encoder_blocks.1.attn.in_proj_bias f4 [72]
00000000: e1a2 21bd 6adf 88bc edfa ce3d 313f 9cba
00000010: 5dbc 4cbd bf5d ee3d 63c1 9f3c 3925 3838
00000020: 9b58 2bbd d85d 1dbe 90ee 34be 5807 103c
00000030: 32cf f7bc e508 8f3d 22e5 a93d d989 fcbb
00000040: 0034 b03d 1d61 a1bc 3a67 b2ba ce3c 7c3b
00000050: 04bb 9d3c d2ba d8bc 40a1 f3bd 7bbb 9e3d
00000060: eb05 e43a f9b6 dfbb 2e4d eb3b 256d c9bb
00000070: f70e 9f3a 3b95 93ba d2c9 88b9 1784 dcbb
00000080: 0171 fcb9 dcad beb9 e124 e7bb dc30 ec39
00000090: c555 dcbb 9d8a ccb9 1402 1c3c d5d7 b83a
000000a0: d1b5 e1bb e357 8b3a a5ec 123a 2727 5ebb
000000b0: 76a6 d0bb 9f69 3dbb c1ff 32ba 0238 3f3b
000000c0: bb96 54bc a775 32bc 05d0 adbc 5123 b93c
000000d0: 2cc8 783c 99cd a03c 2eb2 cf3c 69f3 24bc
000000e0: 4ad0 28bb 86c8 9dbc 09dc 72bc bdc1 67bc
000000f0: aca0 0fbc 9747 b93c e21b c03c e3ad f33c
00000100: c7b6 4bbc cecd e2bc 44c2 4f3c d10a ae3c
00000110: 07e0 9c3c e6ce ce3c a6c8 87bb 0e26 b0bc
-0.039461974 -0.016708095 0.10106454 -0.0011920688 -0.049984325 0.116389744 0.019501394 4.3903685e-05
-0.041832548 -0.1536783 -0.1766913 0.008790813 -0.030250166 0.06984118 0.08295657 -0.0077068624
0.08603668 -0.019699628 -0.0013611086 0.003848839 0.019254215 -0.02645627 -0.1189599 0.07750603
0.0017396783 -0.006827232 0.0071808314 -0.0061470442 0.0012135197 -0.0011259684 -0.0002609031 -0.0067296135
-0.0004814938 -0.0003636916 -0.007053957 0.0004504983 -0.0067240917 -0.00039013187 0.00952198 0.0014102409
-0.0068881293 0.0010631051 0.0005604721 -0.0033897848 -0.0063675 -0.0028902066 -0.00068282714 0.002917767
-0.01297539 -0.010892308 -0.021217356 0.022599848 0.015184443 0.019629287 0.025353517 -0.010067799
-0.0025758916 -0.019260656 -0.014822968 -0.014145312 -0.0087663345 0.022617145 0.023450796 0.029746002
-0.012433714 -0.027686026 0.012680594 0.021245392 0.019149793 0.025245141 -0.004143792 -0.02150252
