digit_transformer3.pt (torch, 286768 bytes, 130 tensors)

encoder.linear_proj.weight f4 [24, 256]
0.2721688 0.024780316 0.027000094 0.07008691 0.10351922 0.08405686 0.1439323 0.12993312
0.23708296 0.2917156 0.22984622 0.20993344 0.15366952 0.031264067 -0.05401755 0.35105032
0.2933778 0.01968556 -0.070925325 -0.122704245 -0.063324265 -0.06135557 -0.06342232 0.021168329
0.04970847 0.07511913 -0.0026799827 0.12692161 0.003323328 -0.087271765 -0.18318005 0.3147725
0.23547022 -0.13206048 -0.20982379 -0.14274359 -0.1383044 -0.07705559 -0.0361099 0.019375132
0.10432835 0.031880602 0.07443029 -0.0011348058 -0.12086738 -0.094025835 -0.23078904 0.2990205
0.21970388 -0.19989748 -0.29095685 -0.26125336 -0.26395264 -0.1420325 -0.03913824 0.05424714
0.16809314 0.15955067 0.0023890657 0.046480853 -0.15303217 -0.17417754 -0.1812228 0.3319794
0.27561355 -0.25209963 -0.32098362 -0.24172215 -0.13913274 -0.040928483 0.017119396 0.09254198
0.09388857 0.1253345 0.010487294 -0.14615977 -0.14396958 -0.23597708 -0.24756762 0.37553507
0.21124828 -0.3172295 -0.37056243 -0.25254577 -0.12649308 -0.028529905 0.091192804 0.1253431
0.0922712 0.077442534 -0.06546616 -0.12249092 -0.14796655 -0.19202669 -0.20885073 0.420074
0.21804503 -0.25539035 -0.3566372 -0.25529695 -0.14060833 0.03291776 0.07456003 0.19774182
0.025122944 0.009067543 -0.07981541 -0.1835457 -0.20923884 -0.18940604 -0.19664434 0.51231825
0.10042524 -0.20977004 -0.27561125 -0.16212748 -0.012740135 0.03111215 0.13375773 0.21335405
0.08290577 0.01466206 -0.05920231 -0.17060173 -0.18238875 -0.20731986 -0.22758594 0.39174473
0.120430544 -0.19572315 -0.18701409 -0.09166637 -0.008035298 0.0757225 0.06517263 0.13056962
0.063544475 -0.015379027 -0.11761226 -0.20163052 -0.1620793 -0.07949466 -0.11827974 0.33400702
0.17226121 -0.17808796 -0.0581513 -0.10728842 0.040191077 0.10192079 0.14307724 0.16113384
0.070186704 -0.058756642 -0.08079018 -0.13949287 -0.004509373 -0.00052249414 -0.09687997 0.2678501
0.17268223 -0.11411659 -0.06386012 0.03202239 -0.011603606 0.07864375 0.09876213 0.08182983
0.06805897 0.10072786 -0.06335353 0.024708787 0.030739674 0.02343143 -0.022408709 0.2655542
0.23506689 -0.09051593 -0.05039275 -0.009433776 -0.071015276 0.07053207 0.14517164 0.075167984
0.14413707 0.022337548 -0.00081578805 0.09371073 0.10016053 0.045453075 0.041866347 0.3421765
0.3261186 -0.13749371 -0.10147078 -0.0640098 -0.1260789 0.04340921 0.06739109 0.17033818
0.108563505 -0.0028044903 -0.019683449 0.15914695 0.053711176 0.07547875 0.14017507 0.31518784
0.35045302 -0.12956354 -0.12941918 -0.06638391 -0.098523304 0.015290491 0.14488553 0.12735437
0.18463032 0.034558367 0.14515643 0.08226377 0.07369075 0.10217999 0.023878781 0.25622022
0.30972165 -0.08461548 -0.053206798 -0.121991426 -0.04754177 0.07280242 0.09602012 0.20819333
0.14726974 0.08716478 0.12916225 0.05939283 0.006743119 0.035068206 0.0075361957 0.18022087
0.33216235 -0.006016955 -0.123562545 -0.058490936 -0.05063258 0.10851925 0.299639 0.30698916
0.24430063 0.22523373 0.24123527 0.2776201 0.29569244 0.22894338 0.03835494 0.14096569
00000000: b559 8b3e 1700 cb3c 4d2f dd3c ba89 8f3d
00000010: e301 d43d 0126 ac3d fd62 133e 300d 053e
00000020: e0c5 723e bf5b 953e cf5c 6b3e cbf8 563e
00000030: 8b5b 1d3e c00e 003d 8241 5dbd debc b33e
00000040: 9d35 963e 9d43 a13c 4c41 91bd 5d4c fbbd
00000050: 27b0 81bd fa4f 7bbd 90e3 81bd 3469 ad3c
00000060: 1c9b 4b3d 0fd8 993d a6a2 2fbb bdf7 013e
00000070: 31cc 593b 8abb b2bd 8d93 3bbe dc29 a13e
00000080: 1b1f 713e dd3a 07be 0cdc 56be 602b 12be
00000090: ab9f 0dbe 52cf 9dbd f9e7 13bd 99b8 9e3c
000000a0: 1aaa d53d 3c95 023d e86e 983d c4bd 94ba
000000b0: 5189 f7bd 9e90 c0bd f653 6cbe 3719 993e
000000c0: 0efa 603e edb1 4cbe 4cf8 94be 00c3 85be
000000d0: cd24 87be f870 11be 6b4f 20bd 4032 5e3d
000000e0: 9c20 2c3e 4061 233e df91 1c3b b562 3e3d
000000f0: 77b4 1cbe 995b 32be 7892 39be 34f9 a93e
00000100: 381d 8d3e 3413 81be f757 a4be 0386 77be
00000110: d078 0ebe a0a4 27bd fa3d 8c3c a686 bd3d
00000120: a748 c03d b057 003e e6d2 2b3c e8aa 15be
00000130: c36c 13be faa3 71be 5e82 7dbe 2246 c03e
00000140: 7851 583e e86b a2be 5cba bdbe ae4d 81be
00000150: 6787 01be 8cb7 e9bc 4bc3 ba3d f159 003e
00000160: aff8 bc3d 319a 9e3d 1f13 86bd 85dc fabd
00000170: 8b84 17be a5a2 44be f7dc 55be f013 d73e
00000180: 3247 5f3e 86c2 82be 2799 b6be 48b6 82be
00000190: a1fb 0fbe c6d4 063d eeb2 983d d57c 4a3e
000001a0: a2ce cd3c 0890 143c 4376 a3bd 67f3 3bbe
000001b0: b542 56be a8f3 41be 225d 49be 4a27 033f
000001c0: c0ab cd3d f5cd 56be eb1c 8dbe bf04 26be
000001d0: 00bc 50bc e8de fe3c c9f7 083e 7c79 5a3e
000001e0: 80ca a93d 2339 703c 1f7e 72bd 38b2 2ebe
000001f0: 1ec4 3abe a84b 54be 4a0c 69be c492 c83e
00000200: 4aa4 f63d a66b 48be 9f80 3fbe 94bb bbbd
00000210: 7ca6 03bc 6614 9b3d 3a79 853d 0bb4 053e
00000220: 9b23 823d 51f8 7bbc b2de f0bd 3b78 4ebe
00000230: 1ef8 25be 19ce a2bd a63c f2bd f802 ab3e
00000240: 3e65 303e b15c 36be 0f30 6ebd 08ba dbbd
00000250: 669f 243d d9bb d03d d782 123e 4500 253e
00000260: 0cbe 8f3d ceaa 70bd 5275 a5bd 38d7 0ebe
00000270: 5dc3 93bb fdf7 08ba 0169 c6bd a623 893e
00000280: 9cd3 303e f5b5 e9bd 18c9 82bd e929 033d
00000290: 0d1d 3ebc f90f a13d cd43 ca3d 6696 a73d
000002a0: 8062 8b3d 694a ce3d 7fbf 81bd 156a ca3c
000002b0: c5d1 fb3c 45f3 bf3c 7892 b7bc b8f6 873e
000002c0: 60b5 703e 6a60 b9bd a168 4ebd 2090 1abc
000002d0: 7570 91bd 1e73 903d e0a7 143e acf1 993d
000002e0: ab98 133e 3cfd b63c 9cda 55ba 69eb bf3d
000002f0: f720 cd3d 012d 3a3d 0c7c 2b3d c231 af3e
00000300: 04f9 a63e 27cb 0cbe eacf cfbd 9217 83bd
00000310: d41a 01be dbcd 313d 5704 8a3d 226d 2e3e
00000320: 8b56 de3d 8acb 37bb 2f3f a1bc 6bf7 223e
00000330: 4000 5c3d 9a94 9a3d 0e8a 0f3e 4d60 a13e
00000340: 946e b33e 4eac 04be 7686 04be 4af4 87bd
00000350: 96c6 c9bd f884 7a3c df5c 143e 2f69 023e
00000360: bb0f 3d3e 138d 0d3d e3a3 143e e879 a83d
00000370: 2deb 963d be43 d13d 6f9d c33c 4c2f 833e
00000380: d693 9e3e e14a adbd 5fef 59bd a4d6 f9bd
00000390: 29bb 42bd 6f19 953d 32a6 c43d a230 553e
000003a0: e1cd 163e 7383 b23d 1c43 043e e545 733d
000003b0: 62f5 dc3b aea3 0f3d 31f2 f63b d28b 383e
000003c0: 2f11 aa3e e029 c5bb 5c0e fdbd 3194 6fbd
000003d0: 1c64 4fbd 573f de3d 486a 993e af2d 9d3e
000003e0: f229 7a3e aca3 663e 6106 773e 3924 8e3e
000003f0: 0065 973e 2270 6a3e 121a 1d3d 4f59 103e

encoder.linear_proj.bias f4 [24]
-0.044261172 -0.035440326 -0.0061890185 0.10092724 0.036408495 0.04797568 -0.012881238 -0.0026727729
0.10069879 0.050233427 0.04425757 -0.007148457 -0.10130471 0.0044130785 -0.097142175 0.006292531
0.016416278 -0.0012086236 -0.06698916 0.012370918 -0.029546846 0.057213534 -0.010460423 0.005526778
00000000: 344b 35bd e029 11bd 40cd cabb f1b2 ce3d
00000010: 1321 153d 2682 443d d40b 53bc b029 2fbb
00000020: 2b3b ce3d 91c1 4d3d 6d47 353d 9b3d eabb
00000030: d878 cfbd 969b 903b 7af2 c6bd 9331 ce3b
00000040: 6e7b 863c ae6a 9eba 9d31 89bd 64af 4a3c
00000050: 3a0c f2bc bd58 6a3d 3262 2bbc f919 b53b

encoder.row_embed.weight f4 [6, 12]
-1.8228714 -1.1640619 0.6362292 -1.4282222 -0.2299353 -1.7632933 -0.8812575 0.8334741
-0.925405 -0.1642992 -0.25134215 1.2970188 -0.61028636 0.07261837 0.47136927 -0.3495939
0.39016184 -0.8815873 0.7111194 0.5050749 0.15627882 -0.42937827 -1.141885 -0.09136008
-0.63196737 0.1964133 -1.0041595 0.85788363 -0.32645926 -0.29194188 -0.1422121 -0.07730561
-0.43223485 -1.0938655 1.3540585 -0.7625524 -0.017198898 0.80404425 -0.6598827 0.8941497
0.29165384 0.10821916 -1.70237 -0.72495365 0.29809424 0.75856775 -0.49265236 -1.138548
-0.33698285 0.18746023 0.5734553 -0.0019817473 0.4559313 -0.90402836 2.2547412 0.8918086
0.3700872 -0.99910533 -0.7546115 -0.14173089 1.6443311 0.9756636 -0.18181978 -0.3074022
0.2799683 -1.7882758 -1.3464291 1.2039425 0.42477155 0.21008399 -0.7009777 -0.6120541
00000000: da53 e9bf fbff 94bf ebdf 223f fccf b6bf
00000010: 2974 6bbe 98b3 e1bf 179a 61bf 8f5e 553f
00000020: 58e7 6cbf 0d3e 28be ebaf 80be b604 a63f
00000030: ba3b 1cbf f1b8 943d 5057 f13e f9fd b2be
00000040: 4bc3 c73e b5af 61bf ec0b 363f 974c 013f
00000050: 8e07 203e 78d7 dbbe 4a29 92bf fe1a bbbd
00000060: 9dc8 21bf 9120 493e 4c88 80bf 439e 5b3f
00000070: ab25 a7be 6879 95be 0ca0 11be 6752 9ebd
00000080: e34d ddbe c903 8cbf ca51 ad3f a236 43bf
00000090: b4e4 8cbc d8d5 4d3f 13ee 28bf ffe6 643f
000000a0: a753 953e 02a2 dd3d 43e7 d9bf 9096 39bf
000000b0: cf9f 983e 7f31 423f ee3c fcbe f1bb 91bf
000000c0: 0489 acbe 93f5 3f3e f7cd 123f 34e0 01bb
000000d0: d46f e93e 676e 67bf ae4d 1040 924d 643f
000000e0: 127c bd3e 5ec5 7fbf 382e 41bf e721 11be
000000f0: 7179 d23f 17c5 793f f72e 3abe d263 9dbe
00000100: 0158 8f3e 39e6 e4bf ca57 acbf ca1a 9a3f
00000110: a87b d93e 4220 573e 4673 33bf 94af 1cbf

encoder.col_embed.weight f4 [6, 12]
0.95939684 0.8148973 -0.43839827 1.217755 -1.3575183 2.4026668 -0.773799 -0.71498585
2.7007551 0.13987656 1.947621 -0.10288928 0.31117827 0.8114281 -0.022779968 0.76420194
-0.02268713 -0.48190832 -1.3333821 -0.87163407 -0.82491964 -1.8796555 0.27597556 0.9749866
-0.25493625 -1.7404873 -1.3681597 -0.44600505 -2.1623602 0.56113434 -0.07115724 -0.6268899
1.2733217 1.4068629 1.4576882 -0.05513464 -0.37954706 -0.7201598 -1.2457837 -0.5663371
-1.1560142 -0.6417859 -0.26149714 1.0833793 1.3340968 1.2337549 0.41876465 0.772123
-1.3732047 -0.59620225 0.849784 -0.7721534 1.8012191 -0.3862192 -1.3698441 0.75956386
-2.670771 -0.8990438 -1.0867634 -0.6699846 -1.1102563 -0.5018696 0.27139044 1.7080168
0.6667989 0.6473866 0.27812192 -0.86363524 -0.34935585 -0.44406608 -0.36568373 -2.0335045
00000000: 089b 753f 1c9d 503f bd75 e0be 65df 9b3f
00000010: 29c3 adbf 4bc5 1940 b117 46bf 5009 37bf
00000020: 2cd9 2c40 cd3b 0f3e a54b f93f 9db7 d2bd
00000030: c252 9f3e c1b9 4f3f 0e9d babc bda2 433f
00000040: 5cda b9bc b0bc f6be 44ac aabf 6923 5fbf
00000050: ef2d 53bf 8d98 f0bf ab4c 8d3e b998 793f
00000060: 0187 82be 4ac8 debf db1f afbf c65a e4be
00000070: 1c64 0ac0 80a6 0f3f e3ba 91bd db7b 20bf
00000080: 35fc a23f 1514 b43f 8795 ba3f dcd4 61bd
00000090: fe53 c2be 655c 38bf d775 9fbf 78fb 10bf
000000a0: 46f8 93bf 154c 24bf f4e2 85be 2cac 8a3f
000000b0: afc3 aa3f aeeb 9d3f 5268 d63e daa9 453f
000000c0: 2cc5 afbf b6a0 18bf 728b 593f d8ab 45bf
000000d0: 598e e63f 86be c5be 0d57 afbf c772 423f
000000e0: e9ed 2ac0 bc27 66bf 101b 8bbf 1c84 2bbf
000000f0: e11c 8ebf 877a 00bf b0f3 8a3e 4ba0 da3f
00000100: 55b3 2a3f 21bb 253f ff65 8e3e 3317 5dbf
00000110: c5de b2be a15c e3be e63a bbbe f024 02c0

encoder.encoder_blocks.0.attn.in_proj_weight f4 [72, 24]
-0.23202486 -0.020032238 -0.02891712 -0.23911446 0.15049675 0.07544248 0.13311459 0.27147996
-0.28308 -0.32501072 -0.15120259 0.034529928 -0.178517 -0.16215402 0.15641747 -0.08149329
-0.09542063 -0.28182396 -0.08829957 0.08962858 0.09562624 0.09491364 -0.015584391 0.106013216
0.0018853685 -0.03972665 -0.24182597 0.38623798 -0.2003103 0.112057164 0.07647813 -0.1533812
0.32728565 -0.08516357 0.051915385 -0.3201633 -0.11113264 0.10370721 -0.025308732 -0.035534937
0.19827932 -0.03192446 -0.1606201 0.114331484 0.08448017 0.22550331 -0.038116604 -0.116158314
-0.06887484 -0.0040366994 0.17585963 -0.13504775 -0.3940963 -0.29727098 0.14465836 0.16731867
0.11874632 0.07476796 -0.03200905 -0.12984897 -0.045368947 -0.04955993 -0.011588758 0.04286299
-0.29304463 0.18356158 -0.30505908 -0.15086414 -0.18579036 0.10006689 0.118250474 -0.18898052
0.11242835 0.037332367 -0.25017428 -0.10461415 -0.10642045 0.105214454 -0.033343907 -0.16350035
-0.23375008 -0.080531724 0.15664102 -0.11146113 0.14609483 0.041746806 0.06549904 0.16345972
-0.2304293 -0.30761385 -0.0042071934 0.09035269 -0.09435917 -0.029924529 -0.16735753 0.11407415
-0.08876853 -0.12800813 0.001737923 0.29235518 -0.04401377 0.10102061 0.23214382 -0.033090465
-0.2526224 0.16125898 -0.18753134 0.0028047485 0.35484272 -0.14863265 0.25883326 -0.05132281
-0.061346345 0.021185562 0.15594228 0.041287176 -0.24358416 0.0844534 0.2610793 0.023483435
0.008207509 -0.3336044 0.12406732 0.1228161 -0.40933087 -0.16270663 -0.123777635 -0.23011039
0.19328262 -0.005586995 0.11121811 -0.076548 -0.084701546 0.076847166 -0.29262945 0.09608329
0.109646276 -0.100354254 -0.15478395 -0.36488754 0.111196585 -0.26915225 -0.17787077 -0.046754867
-0.11246523 -0.07574388 0.06713277 0.19961976 -0.13798821 -0.035559908 -0.12236146 0.04961628
0.18092802 -0.07190451 0.09881002 0.17526734 0.12017985 -0.18626055 0.12217796 0.037282538
-0.04668938 0.064201884 -0.20272656 0.18835865 0.16934668 -0.09346832 0.15446585 -0.26079684
0.11844361 0.009525871 0.08253724 0.003023104 0.17724277 0.073461734 0.024362015 -0.06567854
0.010732418 -0.11192069 0.06697993 0.20098661 0.031862516 -0.114492446 0.06391188 0.103569694
-0.062483832 0.1903538 0.024743043 0.021230478 -0.15627363 -0.1803973 -0.08689408 -0.13427396
-0.022427218 -0.072408535 -0.19896987 -0.038324583 0.27716827 -0.121959105 -0.075559154 -0.06851012
-0.032499157 -0.09314063 -0.11233264 0.02275115 0.1798424 -0.073008746 -0.089618616 0.039243065
-0.1264013 0.047534637 -0.2346307 -0.13920224 -0.1910843 0.07880939 -0.016155621 0.013678255
-0.2135093 0.018182674 0.033748202 0.04306004 -0.11780741 -0.14875232 0.04724969 -0.06165178
-0.15690662 -0.03195948 -0.0012218001 -0.3833541 -0.1801575 -0.0019516596 -0.07749981 -0.10597489
0.027701693 0.3698051 -0.074404895 -0.098091945 0.089614324 0.12089479 0.018263176 0.30800352
-0.022398362 -0.06534784 0.17996104 0.32688323 0.23618302 0.2537916 -0.12234237 0.10238399
-0.14913586 -0.24941608 -0.057025675 0.25971186 -0.015165094 -0.16651492 -0.087592855 0.29257688
00000000: ed97 6dbe a61a a4bc 99e3 ecbc 6cda 74be
00000010: d21b 1a3e 9681 9a3d 314f 083e 6cff 8a3e
00000020: ddef 90be ce67 a6be dad4 1abe 416f 0d3d
00000030: 29cd 36be b40b 26be e72b 203e f4e5 a6bd
00000040: e46b c3bd 3b4b 90be 68d6 b4bd 308f b73d
00000050: b1d7 c33d 1562 c23d ac55 7fbc 751d d93d
00000060: 781e f73a 69b8 22bd 3aa1 77be fcc0 c53e
00000070: 251e 4dbe 3a7e e53d 91a0 9c3d f60f 1dbe
00000080: fc91 a73e 3d6a aebd 3aa5 543d 72ec a3be
00000090: 8299 e3bd 7264 d43d 4254 cfbc 158d 11bd
000000a0: bc09 4b3e 39c3 02bd 9879 24be a026 ea3d
000000b0: f003 ad3d 57ea 663e 2820 1cbd 69e4 edbd
000000c0: 410e 8dbd 4a46 84bb 8c14 343e f549 0abe
000000d0: fdc6 c9be e733 98be 5221 143e 9655 2b3e
000000e0: 4531 f33d f21f 993d ec1b 03bd 21f7 04be
000000f0: cad4 39bd 5aff 4abd c6de 3dbc 1a91 2f3d
00000100: f209 96be 91f7 3b3e b430 9cbe 217c 1abe
00000110: d43f 3ebe dfef cc3d 4e2d f23d 1c84 41be
00000120: d640 e63d d3e9 183d d816 80be f23f d6bd
00000130: f7f2 d9bd ad7a d73d 9f93 08bd a36c 27be
00000140: 2e5c 6fbe d1ed a4bd 8166 203e bc45 e4bd
00000150: e299 153e b3fe 2a3d 5c24 863d fc61 273e
00000160: a9f5 6bbe 907f 9dbe 7fdc 89bb d50a b93d
00000170: 613f c1bd 4924 f5bc c65f 2bbe b59f e93d
00000180: 46cc b5bd 9014 03be 05cb e33a 94af 953e
00000190: c847 34bd e5e3 ce3d 1cb7 6d3e de89 07bd
000001a0: b957 81be 1321 253e 3708 40be dfcf 373b
000001b0: f2ad b53e 2833 18be cb85 843e de37 52bd
000001c0: 4e46 7bbd 588d ad3c 55af 1f3e be1c 293d
000001d0: 206e 79be e7f5 ac3d 30ac 853e 5560 c03c
000001e0: ca78 063c 32ce aabe 0217 fe3d 0287 fb3d
000001f0: d193 d1be 919c 26be 217f fdbd 0fa2 6bbe
00000200: e1eb 453e 1c13 b7bb 52c6 e33d 33c5 9cbd
00000210: 0178 adbd 0c62 9d3d 87d3 95be 51c7 c43d
00000220: 3a8e e03d 8886 cdbd af7f 1ebe 8ad2 babe
00000230: 09bb e33d 53ce 89be c123 36be 0882 3fbd
00000240: 2c54 e6bd 9b1f 9bbd e87c 893d 1f69 4c3e
00000250: c84c 0dbe 44a7 11bd a598 fabd 713a 4b3d
00000260: 3245 393e ac42 93bd e85c ca3d 4879 333e
00000270: da20 f63d 16bb 3ebe 7038 fa3d 93b5 183d
00000280: 5d3d 3fbd 477c 833d 8d97 4fbe 17e1 403e
00000290: 3769 2d3e 526c bfbd 4c2c 1e3e 2a87 85be
000002a0: 9092 f23d 6612 1c3c 4909 a93d 451f 463b
000002b0: 217f 353e 1b73 963d d992 c73c 7882 86bd
000002c0: 06d7 2f3c ad36 e5bd c62c 893d 6fcf 4d3e
000002d0: 4582 023d 047b eabd 3be4 823d 591c d43d
000002e0: 0cef 7fbd 1bec 423e ecb1 ca3c 8aeb ad3c
000002f0: 3206 20be 12ba 38be 86f5 b1bd 1d7f 09be
00000300: 49b9 b7bc ed4a 94bd c2be 4bbe 3dfa 1cbd
00000310: 00e9 8d3e b2c5 f9bd c2be 9abd 094f 8cbd
00000320: d61d 05bd 84c0 bebd a80e e6bd 9f60 ba3c
00000330: 9b28 383e 9c85 95bd f789 b7bd 56bd 203d
00000340: 586f 01be aeb3 423d 0843 70be 088b 0ebe
00000350: 9aab 43be d166 a13d cb58 84bc c21a 603c
00000360: 2fa2 5abe d5f3 943c 8e3b 0a3d b95f 303d
00000370: 0345 f1bd 8752 18be e488 413d 9486 7cbd
00000380: 21ac 20be f2e7 02bd cf24 a0ba fd46 c4be
00000390: 357b 38be d4ce ffba 38b8 9ebd 5d09 d9bd
000003a0: a9ee e23c 1857 bd3e 9861 98bd 6ee4 c8bd
000003b0: b787 b73d b097 f73d a89c 953c a3b2 9d3e
000003c0: c57c b7bc 17d5 85bd b547 383e 3d5d a73e
000003d0: f6d9 713e f9f0 813e a38e fabd b3ae d13d
000003e0: 12b7 18be ee66 7fbe c193 69bd f4f8 843e
000003f0: 0477 78bc e382 2abe e263 b3bd a3cc 953e

encoder.encoder_blocks.0.attn.in_proj_bias f4 [72]
0.049697343 0.011841375 0.010956425 0.006500516 -0.009361867 -0.004372398 -0.018657971 -0.03955909
0.040213823 -0.005084794 -0.04426528 -0.08766665 -0.04037049 0.10176487 -0.00026445775 0.0010830194
-0.005091591 -0.078633025 -0.063248634 0.10346984 0.09396107 0.032367498 -0.01965621 -0.08221439
0.00940924 0.0004932428 0.010995519 -0.006424431 -0.012799505 0.0022469072 0.003630149 0.0026465706
0.0011552854 -0.0037614624 -0.008139737 0.000105975094 -0.00363214 -0.006850753 -0.004340352 -0.0029979174
0.0025398294 -0.011911267 -0.03032043 0.025389897 0.004805507 0.0077186152 -0.015269958 -0.029939154
-0.050944496 -0.0009937603 0.005897289 -0.019183768 -0.009596951 -0.007119941 -0.0723827 0.06380304
0.041624483 0.03359419 0.006860534 0.06412059 0.048123397 -0.008929399 -0.04183966 0.033309355
-0.02689662 0.04783916 0.058924153 -0.02988101 0.00504459 -0.084886976 -0.020504393 -0.013457459
00000000: 718f 4b3d 5402 423c 9482 333c 4802 d53b
00000010: 8462 19bc 5546 8fbb 9ad8 98bc b608 22bd
00000020: 40b7 243d 589e a6bb 834f 35bd 938a b3bd
00000030: 875b 25bd 1a6a d03d eba6 8ab9 1af4 8d3a
00000040: 5cd7 a6bb 5a0a a1bd 8088 81bd ffe7 d33d
00000050: a96e c03d c893 043d 0f06 a1bc 0560 a8bd
00000060: 3729 1a3c f74c 013a 8d26 343c 0984 d2bb
00000070: 04b5 51bc d940 133b cbe7 6d3b 1672 2d3b
00000080: f26c 973a de82 76bb 885c 05bc f23e de38
00000090: 3309 6ebb 487c e0bb 8339 8ebb b578 44bb
000000a0: 4473 263b 7a27 43bc 8d62 f8bc 79fe cf3c
000000b0: 8477 9d3b 70ec fc3b d92e 7abc f542 f5bc
000000c0: 2dab 50bd 1041 82ba 0c3e c13b 4727 9dbc
000000d0: 883c 1dbc 654e e9bb 623d 94bd 2bab 823d
000000e0: 6f7e 2a3d 109a 093d 55ce e03b a851 833d
000000f0: 0a1d 453d 9d4c 12bc 1060 2bbd 646f 083d
00000100: 4d56 dcbc fff2 433d 745a 713d 05c9 f4bc
00000110: 174d a53b 39d9 adbd d4f8 a7bc ad7c 5cbc

encoder.encoder_blocks.0.attn.out_proj.weight f4 [24, 24]
0.2743008 -0.06597147 0.08618246 0.048277415 -0.18949457 -0.15777531 0.00186702 0.16712137
-0.038260017 -0.22070432 -0.07471809 -0.116425805 -0.1634576 0.03163174 -0.05035398 0.13885765
-0.071043015 -0.07336339 0.045624476 0.0338332 0.15904415 -0.21085256 0.050131083 0.083299115
0.15707807 -0.077312134 0.09976215 0.14787556 0.17064297 -0.046268124 -0.13541585 -0.121879704
-0.06983257 0.14727011 -0.14142579 -0.1056691 0.12853374 0.067464076 0.20451066 0.009353525
-0.12281335 0.14867061 0.13328277 -0.114749916 -0.03486594 0.06988248 -0.15399149 0.1437998
-0.20325677 0.035291035 -0.15087868 -0.050017186 0.17515483 -0.029248767 0.17236874 -0.033834845
-0.07787423 -0.30713204 -0.24477027 0.05898958 0.028024897 -0.00985995 0.34527397 -0.14198877
0.049452506 0.023386838 0.043505765 -0.17690025 -0.14802101 0.14981051 0.05319368 0.22284566
0.084061444 0.088528715 0.16467534 0.16372856 -0.20821893 -0.25264335 -0.1421857 0.038557075
-0.1276392 0.0011884287 0.087873556 0.264419 0.013137224 -0.03026331 -0.3614402 -0.0056772833
0.027205693 0.21249536 0.19912237 -0.13558687 -0.040548626 0.029458879 0.10722291 -0.050084826
-0.06798205 0.052468825 0.14287962 0.05575046 0.05066391 0.045629617 0.039396387 -0.09134696
0.116340235 -0.097071715 -0.08385225 -0.026668107 0.1681373 0.10677666 0.20542935 0.084230274
-0.18861575 -0.11598686 0.04745416 0.024534848 -0.016771512 -0.21765289 -0.046209976 -0.11193174
-0.08047873 0.11625083 0.11539789 0.076281115 -0.35226882 -0.2135013 -0.14564997 -0.044000313
0.23241155 -0.23343481 0.157814 -0.09301579 -0.014731591 -0.22704136 -0.011441383 -0.061096814
-0.13601503 0.18711084 0.13130522 0.09994189 -0.14866558 0.08775192 0.28233275 0.040576067
-0.1972332 -0.00047922382 -0.0045801927 0.14428625 0.02463438 0.18998878 0.16951884 0.15907364
-0.021936452 0.038692318 0.12969021 -0.15672511 -0.11046163 0.03824979 0.13699979 -0.059094705
-0.0942395 -0.056106023 -0.1100412 -0.017654022 0.13217084 0.03136579 -0.046712823 0.0691594
-0.05386101 -0.09471492 -0.15275966 -0.0326014 -0.042301908 0.060254913 -0.0701863 0.039232727
-0.04479318 -0.0657133 -0.11393982 -0.041887213 0.07017391 -0.13416609 0.1595442 -0.13133514
-0.20407784 0.21713412 -0.10432167 0.0010301556 -0.07830485 0.019845316 -0.0813386 -0.014812961
0.185113 -0.13140506 -0.11062082 -0.008253679 0.18904988 -0.18024157 -0.17211156 -0.06376991
-0.21049668 0.120521925 0.046096407 -0.19471766 -0.021899825 -0.23178585 0.2958897 -0.020516137
-0.12895784 -0.1476294 0.015419313 0.009677784 -0.17372741 -0.1875032 -0.17465635 -0.073779844
-0.17547196 -0.004482992 0.03260372 0.12265821 0.088810906 0.032074958 0.06395182 -0.11140013
0.21459141 0.14626007 0.07222581 0.14624783 0.08072343 -0.0859775 0.018018983 -0.20547791
0.15796416 -0.117535256 0.17167605 -0.16620916 -0.008921282 -0.17205192 -0.11865815 0.063547455
0.33747408 0.20986111 0.06473849 0.06685929 0.1675588 0.04188394 -0.008203192 0.07862624
0.20400722 0.12521487 0.021310266 -0.04926104 -0.06843115 0.20157963 -0.11774552 -0.10340566
00000000: 2871 8c3e 0d1c 87bd 6e80 b03d 8abe 453d
00000010: dd0a 42be da8f 21be ccb6 f43a dd21 2b3e
00000020: 89b6 1cbd 5000 62be cc05 99bd a770 eebd
00000030: 6e61 27be 4990 013d fa3f 4ebd b330 0e3e
00000040: 007f 91bd 8c3f 96bd bbe0 3a3d ae94 0a3d
00000050: 78dc 223e bce9 57be 4056 4d3d ba98 aa3d
00000060: 13d9 203e d355 9ebd 1950 cc3d b16c 173e
00000070: 08bd 2e3e a583 3dbd 74aa 0abe 119c f9bd
00000080: 6104 8fbd facd 163e ecd1 10be 0b69 d8bd
00000090: 599e 033e 9b2a 8a3d 3e6b 513e 873f 193c
000000a0: 9185 fbbd 1c3d 183e 477b 083e 0102 ebbd
000000b0: 97cf 0ebd 8c1e 8f3d f2af 1dbe 4140 133e
000000c0: 8b22 50be 558d 103d f17f 1abe d2de 4cbd
000000d0: ca5b 333e 1c9b efbc 6e81 303e 6896 0abd
000000e0: 867c 9fbd 6940 9dbe 0fa5 7abe 0f9f 713d
000000f0: 7894 e53c a18b 21bc c0c7 b03e 8165 11be
00000100: b68e 4a3d c195 bf3c 1a33 323d 5725 35be
00000110: d292 17be ed67 193e 9ee1 593d a731 643e
00000120: 6828 ac3d 8b4e b53d a7a0 283e 76a8 273e
00000130: 5837 55be 785a 81be 2199 11be 06ee 1d3d
00000140: dab3 02be 0dc5 9b3a 0df7 b33d ed61 873e
00000150: 833d 573c c3ea f7bc b10e b9be 8108 babb
00000160: 79de de3c 6298 593e bce6 4b3e 49d7 0abe
00000170: 5116 26bd bf53 f13c af97 db3d bf25 4dbd
00000180: 2c3a 8bbd 8de9 563d 094f 123e 985a 643d
00000190: f684 4f3d 1fe6 3a3d 1b5e 213d 1d14 bbbd
000001a0: ca43 ee3d 89cd c6bd baba abbd 1377 dabc
000001b0: 2f2c 2c3e b9ad da3d 125c 523e ec80 ac3d
000001c0: 7d24 41be 858a edbd 4b5f 423d 4efd c83c
000001d0: 6964 89bc 66e0 5ebe ac46 3dbd 783c e5bd
000001e0: 08d2 a4bd ea14 ee3d bb55 ec3d 4639 9c3d
000001f0: 945c b4be 16a0 5abe 4425 15be ac39 34bd
00000200: 4bfd 6d3e 8909 6fbe fe99 213e 107f bebd
00000210: c55c 71bc 887d 68be a374 3bbc a740 7abd
00000220: 8647 0bbe fc99 3f3e e074 063e 55ae cc3d
00000230: ca3b 18be 47b7 b33d eb8d 903e 1733 263d
00000240: 80f7 49be 5540 fbb9 7115 96bb c6bf 133e
00000250: 0ace c93c 6b8c 423e 5996 2d3e 33e4 223e
00000260: 13b4 b3bc d67b 1e3d 83cd 043e 8c7c 20be
00000270: b539 e2bd d0ab 1c3d ac49 0c3e 4a0d 72bd
00000280: a400 c1bd 6ecf 65bd 485d e1bd 2b9f 90bc
00000290: cb57 073e 6a79 003d f255 3fbd 72a3 8d3d
000002a0: 5d9d 5cbd e5f9 c1bd 076d 1cbe 0c89 05bd
000002b0: c444 2dbd dbcd 763d d6bd 8fbd 7fb2 203d
000002c0: 0e79 37bd b294 86bd 4859 e9bd ed91 2bbd
000002d0: 57b7 8f3d d662 09be 8e5f 233e b87c 06be
000002e0: c8f9 50be 6858 5e3e 9aa6 d5bd 4906 873a
000002f0: 4b5e a0bd a592 a23c da94 a6bd 10b2 72bc
00000300: 438e 3d3e 0c8f 06be 2b8d e2bd 703a 07bc
00000310: 4b96 413e 3f91 38be 033e 30be cc99 82bd
00000320: 718c 57be 33d4 f63d 96cf 3c3d 1164 47be
00000330: 4367 b3bc 4559 6dbe db7e 973e 7511 a8bc
00000340: 860d 04be 292c 17be 49a1 7c3c 918f 1e3c
00000350: 99e5 31be d700 40be 1dd9 32be e319 97bd
00000360: ecae 33be 10e6 92bb 7a8b 053d 3a34 fb3d
00000370: 7ee2 b53d 0861 033d 2cf9 823d c025 e4bd
00000380: dabd 5b3e 33c5 153e 20eb 933d fec1 153e
00000390: 5352 a53d f914 b0bd 8c9c 933c cd68 52be
000003a0: 5bc1 213e 53b6 f0bd d9cb 2f3e bc32 2abe
000003b0: 922a 12bc 612e 30be 0b03 f3bd 2b25 823d
000003c0: 67c9 ac3e d5e5 563e 9d95 843d 86ed 883d
000003d0: 8994 2b3e 7f8e 2b3d ae66 06bc cb06 a13d
000003e0: 45e7 503e 5438 003e de92 ae3c f2c5 49bd
000003f0: a125 8cbd e46a 4e3e 9024 f1bd 59c6 d3bd

encoder.encoder_blocks.0.attn.out_proj.bias f4 [24]
-0.041977808 -0.03369686 4.4921064e-05 0.07015345 0.015407301 0.060438715 -0.026104093 0.04823146
0.030198187 0.00512629 0.023906162 -0.034066893 -0.07774425 -0.011726202 -0.09271519 -0.024810394
0.06270964 -0.039493676 -0.034639165 0.055863008 -3.3776246e-06 0.010375329 -0.0044852896 -0.010719229
00000000: ecf0 2bbd b805 0abd a069 3c38 9dac 8f3d
00000010: e76e 7c3c 968e 773d 40d8 d5bc 5a8e 453d
00000020: 3062 f73c 70fa a73b dbd6 c33c ba89 0bbd
00000030: 6138 9fbd 421f 40bc 76e1 bdbd 2b3f cbbc
00000040: e96d 803d 1fc4 21bd cce1 0dbd 9cd0 643d
00000050: 26ab 62b6 49fd 293c 56f9 92bb b49f 2fbc

encoder.encoder_blocks.0.norm1.weight f4 [24]
0.8158682 1.0005991 0.9782645 0.9549178 1.025558 0.99322 0.6616649 0.9764584
0.9958182 0.9023702 0.85572577 0.93520063 1.1606767 1.0671438 1.0154184 1.0497063
0.9864697 1.0486213 1.0599252 1.1736678 0.975987 1.0394157 1.0347247 1.2052182
00000000: bddc 503f a213 803f 8b6f 7a3f 7e75 743f
00000010: 7c45 833f aa43 7e3f df62 293f 2df9 793f
00000020: f1ed 7e3f bc01 673f d810 5b3f 4f69 6f3f
00000030: 0e91 943f 2b98 883f 3bf9 813f c75c 863f
00000040: 4789 7c3f 3939 863f a1ab 873f bf3a 963f
00000050: 49da 793f 930b 853f dc71 843f 9744 9a3f

encoder.encoder_blocks.0.norm1.bias f4 [24]
-0.006827293 0.02156056 -0.009426745 0.011146236 0.012233071 -0.008386634 -0.02433051 -0.04535197
-0.042680558 -0.030376755 -0.02148378 0.051934794 0.07637487 0.007245565 0.036710985 0.01504204
-0.054416157 -0.0023776367 0.05280101 0.023452643 -0.025613427 0.019715441 -0.05498197 0.011096646
00000000: 7cb7 dfbb c69f b03c a272 1abc b49e 363c
00000010: 386d 483c 1868 09bc c750 c7bc fdc2 39bd
00000020: cfd1 2ebd acd8 f8bc c1fe afbc 94b9 543d
00000030: 6e6a 9c3d 346c ed3b 425e 163d e372 763c
00000040: 7ae3 5ebd 20d2 1bbb df45 583d c21f c03c
00000050: 40d3 d1bc 4782 a13c c634 61bd b5ce 353c

encoder.encoder_blocks.0.ff.0.weight f4 [24, 24]
0.08178254 0.13999401 0.17627466 0.18844292 -0.3498772 0.1387032 -0.16235214 0.025472555
0.2347041 -0.18632951 0.19244544 -0.118840836 -0.30849314 -0.12818159 0.07227261 0.21253647
-0.043057784 -0.14166199 0.176027 0.11050065 0.040031634 -0.100384414 0.15800071 0.13662654
-0.012433739 0.23195037 0.19521962 -0.15143545 -0.24283046 0.21602473 0.045369994 -0.20062293
0.08629692 -0.044734266 0.08123071 -0.07267409 -0.025733327 -0.030794472 -0.06502285 0.06707054
-0.07402098 -0.23292007 -0.19768338 -0.058761995 0.08300146 -0.023545213 0.16130525 -0.10494311
-0.2344668 0.26270315 -0.09008271 0.15562597 0.09288041 -0.3982503 -0.102832794 -0.1352937
-0.12709361 -0.03969408 -0.12294304 0.14553668 -0.08436291 0.043915935 0.20387185 -0.21287948
-0.12201923 -0.13059093 0.15704446 -0.049908873 0.21049005 -0.23616368 -0.22094981 -0.12211605
-0.2414782 0.0046765567 -0.04069273 0.14938185 0.0051876735 0.07055756 -0.049822804 0.10511966
0.16258529 -0.13818452 0.017188968 0.07381176 -0.04865948 -0.016285336 0.04403169 -0.06804525
0.20140035 0.047761437 -0.1454103 -0.025440017 0.1444742 0.05377829 -0.12175476 -0.20296581
-0.20349836 0.2951808 0.13384612 0.26429018 -0.28312206 -0.38161993 0.05794015 -0.083751105
0.0075369393 -0.0007053572 -0.1143139 -0.06490358 -0.0049960166 -0.17023364 -0.017720936 0.14216752
0.2239919 0.04522767 0.08492922 0.011680934 0.09874121 -0.02240349 0.008030767 0.11229007
0.019896604 0.057820644 -0.00548224 -0.23437002 -0.1319149 0.13677107 0.024110883 0.091311336
-0.03590241 0.024209918 -0.085265934 -0.17517142 0.0154432645 0.09863592 -0.13216634 0.015658384
-0.085449696 0.18584543 -0.13822718 -0.31334123 0.017286617 0.059061144 0.15092693 0.008995496
0.2921431 -0.32389298 0.062409163 -0.13049936 0.17458689 0.4091884 0.011803079 -0.022104649
0.1086169 -0.09311394 0.030352173 0.07194684 -0.073243596 -0.022328481 -0.2504993 0.09215743
0.062684506 0.24775843 0.025334539 0.043842334 0.009660119 -0.14070229 -0.021184191 0.07672539
-0.028791454 0.2583756 0.17108718 0.1976755 0.020839157 -0.2471444 -0.023552645 -0.25696903
-0.061245482 -0.15241683 -0.116620526 0.02455342 0.05175791 -0.115954705 0.009603646 0.013813983
-0.09048648 -0.026914533 0.11112379 0.420801 0.011765419 -0.14903143 0.13390465 0.16590127
0.06108455 -0.11875207 -0.21114977 -0.12406732 -0.067721605 0.11108297 0.008014661 -0.13572656
-0.057322804 -0.0071359705 -0.2959331 -0.02064763 0.10339765 -0.17503794 0.11048366 -0.16394746
0.09018634 -0.03969832 -0.20735674 -0.120818816 0.057742883 0.0063440097 0.030840572 0.015583311
-0.064158276 -0.05805567 0.06401778 0.16045895 0.021357937 0.026740769 0.02640107 0.09787171
0.05641199 0.024007896 -0.014476564 0.0553133 0.31956807 -0.22453086 0.17193949 0.09243075
-0.16440344 -0.09864658 -0.20477058 0.09837233 -0.17897518 0.19569775 -0.37226945 0.01763479
-0.056438845 -0.18032728 0.3207368 0.19255184 0.112191305 0.17420517 -0.26389673 0.107203595
0.22197269 -0.18495265 0.13104807 0.049757168 0.03189419 0.174547 0.013467661 -0.12251104
00000000: 9b7d a73d 975a 0f3e 5881 343e 2ef7 403e
00000010: 1b23 b3be 3608 0e3e a43f 26be d2ab d03c
00000020: 4656 703e 2acd 3ebe 6b10 453e d362 f3bd
00000030: d0f2 9dbe 0942 03be aa03 943d 29a3 593e
00000040: 5c5d 30bd d70f 11be 6c40 343e 2a4e e23d
00000050: 36f8 233d 5896 cdbd f0ca 213e d4e7 0b3e
00000060: e2b6 4bbc 6684 6d3e a7e7 473e e511 1bbe
00000070: 8ca8 78be 9635 5d3e e3d5 393d 1970 4dbe
00000080: 71bc b03d 473b 37bd 495c a63d 27d6 94bd
00000090: b3ce d2bc b044 fcbc b32a 85bd 475c 893d
000000a0: 5098 97bd 9982 6ebe 836d 4abe 6bb0 70bd
000000b0: abfc a93d e4e1 c0bc 342d 253e 6aec d6bd
000000c0: 1118 70be 0781 863e 497d b8bd 6a5c 1f3e
000000d0: 1638 be3d 77e7 cbbe 009a d2bd 6f8a 0abe
000000e0: d424 02be 4296 22bd 90c9 fbbd 9107 153e
000000f0: 76c6 acbd 32e1 333d c8c3 503e 14fd 59be
00000100: 38e5 f9bd a1b9 05be 43d0 203e 3f6d 4cbd
00000110: b48a 573e e4d4 71be ab40 62be fb17 fabd
00000120: 1046 77be cd3d 993b 6cad 26bd 8ef7 183e
00000130: 5cfd a93b 7b80 903d ff12 4cbd fa48 d73d
00000140: c27c 263e 3e80 0dbe e1cf 8c3c 9f2a 973d
00000150: 2a4f 47bd d368 85bc 935a 343d 4f5b 8bbd
00000160: e53b 4e3e 7fa1 433d 70e6 14be 9567 d0bc
00000170: 0bf1 133e a046 5c3d 8f5a f9bd 45d6 4fbe
00000180: e061 50be f021 973e f50e 093e 0b51 873e
00000190: 60f5 90be b063 c3be a752 6d3d b385 abbd
000001a0: 6ef8 f63b b8e7 38ba 681d eabd 2bec 84bd
000001b0: a0b5 a3bb ba51 2ebe 7f2b 91bc 5d94 113e
000001c0: 225e 653e a640 393d 5fef ad3d 6361 3f3c
000001d0: d538 ca3d 8687 b7bc 7a93 033c 56f8 e53d
000001e0: 34fe a23c 57d5 6c3d 5da4 b3bb b2fe 6fbe
000001f0: b314 07be b70d 0c3e 3084 c53c 7001 bb3d
00000200: 680e 13bd e153 c63c e89f aebd 2360 33be
00000210: bf05 7d3c a101 ca3d 9d56 07be 0346 803c
00000220: 4000 afbd 444e 3e3e 6d8b 0dbe 436e a0be
00000230: aa9c 8d3c 19ea 713d 978c 1a3e d861 133c
00000240: c893 953e 4dd5 a5be c0a0 7f3d a0a1 05be
00000250: e8c6 323e 2481 d13e b461 413c cf14 b5bc
00000260: 8a72 de3d 85b2 bebd 1fa5 f83c dd58 933d
00000270: bd00 96bd 38ea b6bc 7241 80be 09bd bc3d
00000280: bc60 803d 63b4 7d3e 618a cf3c 0594 333d
00000290: 7a45 1e3c 4314 10be 788a adbc 3422 9d3d
000002a0: 0edc ebbc cf49 843e 7a31 2f3e 726b 4a3e
000002b0: e1b6 aa3c 6c13 7dbe 7af1 c0bc 7291 83be
000002c0: 8bdc 7abd 2813 1cbe bed6 eebd 4124 c93c
000002d0: 1a00 543d a979 edbd 9c58 1d3c 0b54 623c
000002e0: fa50 b9bd de7b dcbc df94 e33d 3b73 d73e
000002f0: bec3 403c b29b 18be 4d1e 093e 06e2 293e
00000300: cb33 7a3d 4934 f3bd a537 58be 0217 febd
00000310: a0b1 8abd 787f e33d ed4f 033c e7fb 0abe
00000320: 51cb 6abd dcd4 e9bb 8b84 97be 3825 a9bc
00000330: 26c2 d33d 253d 33be 4245 e23d d8e1 27be
00000340: 9eb3 b83d b59a 22bd 5355 54be db6f f7bd
00000350: cd83 6c3d 69e1 cf3b 5ea5 fc3c 2551 7f3c
00000360: 6a65 83bd c8cb 6dbd c11b 833d 5a4f 243e
00000370: d7f6 ae3c 750f db3c 0f47 d83c f770 c83d
00000380: 4210 673d 35ac c43c 1c2f 6dbc 3390 623d
00000390: 6d9e a33e 6beb 65be e810 303e 554c bd3d
000003a0: 6059 28be 3807 cabd 61af 51be 6f77 c93d
000003b0: 4545 37be fe64 483e 1a9a bebe d676 903c
000003c0: 6b2c 67bd b7a7 38be 9d37 a43e 4f2c 453e
000003d0: 8ec4 e53d d762 323e 791d 87be 8f8d db3d
000003e0: cf4c 633e 3a64 3dbe 7731 063e 2cce 4b3d
000003f0: 7ba3 023d 73bc 323e 77a7 5c3c 11e7 fabd

encoder.encoder_blocks.0.ff.0.bias f4 [24]
0.059600327 0.17255937 0.031000344 -0.11485972 -0.19781712 -0.07615685 0.031638283 -0.02226064
0.05813407 0.182591 -0.114971764 -0.006064364 0.078800514 -0.12140082 -0.13140607 0.06826365
-0.16547446 0.028765086 0.13040128 0.07040186 -0.081386775 -0.10836017 -0.02055085 0.03507763
00000000: 791f 743d 67b3 303e 6ff4 fd3c 933b ebbd
00000010: 9290 4abe 1ff8 9bbd 2597 013d f25b b6bc
00000020: fe1d 6e3d 23f9 3a3e 5176 ebbd 93b7 c6bb
00000030: 2a62 a13d fea0 f8bd 508f 06be d0cd 8b3d
00000040: 2372 29be c2a4 eb3c ea87 053e da2e 903d
00000050: 1cae a6bd f0eb ddbd 425a a8bc 90ad 0f3d

encoder.encoder_blocks.0.ff.2.weight f4 [24, 24]
-0.24906994 0.13794146 -0.16305809 -0.024619367 0.34878728 -0.114841305 0.12294692 0.09018239
0.08132946 -0.2639714 0.43645236 -0.09730488 0.09703774 0.034979466 -0.08131947 0.058363166
0.113403514 0.0076085697 0.10092946 0.026577294 0.012160385 -0.18912339 -0.20120545 0.2160364
-0.21951191 0.13023713 0.089202516 0.13101053 -0.14021285 0.048925318 -0.23073477 0.2617417
0.0035401313 0.024426278 -0.08196266 0.1668664 -0.092531174 -0.08893373 0.06209845 0.092605755
-0.12850483 -0.123318605 -0.20874733 0.18272881 0.25725368 0.033917308 -0.31026128 0.104097955
0.43353552 0.039630115 -0.11997383 0.2301864 -0.07260923 -0.09762986 -0.14826714 0.013269571
-0.23935439 -0.16168557 -0.4357982 0.11501998 -0.037437916 -0.107885756 -0.021946635 -0.050231867
-0.17392303 -0.0054898467 0.28939113 0.117496535 0.07141395 -0.14349033 0.13355367 0.14686406
-0.24320139 -0.16989656 0.109292746 -0.10802797 -0.27072546 -0.13505003 0.0007326083 -0.06952358
-0.019756252 0.19985373 -0.3550906 -0.06941377 0.20238702 -0.07671547 0.06960339 0.039993767
0.10283817 0.14258224 -0.13454126 0.10467125 0.15754859 -0.25020355 -0.0931225 -0.011755671
0.08874748 -0.13964573 -0.2570887 -0.10481571 -0.11984506 -0.13200063 -0.14513369 -0.18668014
-0.2494519 -0.35966823 0.24179986 0.21748492 -0.011320433 -0.11113549 0.0027698015 0.046509415
0.031077819 -0.13264754 -0.0022452574 0.22170407 -0.243589 0.013264863 0.2814361 -0.07976797
0.03459505 0.06002661 -0.19051291 0.16116107 0.25916827 0.030606315 -0.038315322 -0.16631724
-0.06650232 -0.11289242 -0.10689525 -0.0014196746 0.06323327 -0.09915055 0.3336444 -0.24015434
-0.06367002 -0.17578617 -0.21422543 -0.19308093 -0.17183772 0.20580745 -0.0950175 -0.21802145
-0.00058297894 -0.13403492 0.19941795 -0.15342252 0.04178682 0.06616343 0.22980803 0.12962987
0.011728443 -0.16606815 0.09603146 0.14725664 -0.09727843 -0.23979625 -0.18925527 0.15476291
-0.0062303636 -0.14339401 -0.29447153 -0.16556016 0.28031337 0.27435708 -0.10935688 -0.0873467
0.008650489 0.02366479 -0.21286915 0.10963843 -0.21689542 -0.078482024 -0.19141223 -0.010668039
0.19178653 -0.1096847 -0.06357003 -0.041841988 0.138033 0.07098835 -0.109964 -0.24614367
-0.05953523 0.18806292 -0.055671796 -0.06883409 0.041140605 0.15309061 0.058564402 -0.13008007
0.13563228 -0.06815073 0.017323345 0.11768235 0.39896432 -0.14625381 0.06036967 -0.13863823
-0.06341934 0.08550338 0.07110709 0.15305957 -0.19704203 -0.12217469 0.17535882 -0.28683114
-0.117670655 -0.17966458 -0.26050594 0.20244747 -0.0052755717 -0.1361315 -0.038018163 -0.02170972
-0.03813664 0.09037093 -0.094314896 -0.03570624 -0.12779124 -0.08431737 -0.03198467 -0.020170439
0.085656494 -0.11393284 -0.21260919 0.11230189 -0.23994938 0.16107935 0.10851704 -0.20173207
0.018143533 0.11133254 0.0054704584 -0.053643737 0.02780511 0.055511292 0.1009447 0.015684472
-0.052794844 -0.055539116 0.11804822 -0.21711297 0.41599315 0.090980865 -0.033455268 -0.14564736
0.15783648 0.100515544 0.04173813 -0.08325499 -0.009153973 0.15714693 -0.0059138387 -0.12796462
00000000: 310c 7fbe 8740 0d3e b3f8 26be 8eae c9bc
00000010: 3f94 b23e eb31 ebbd 98cb fb3d 8bb1 b83d
00000020: 0f90 a63d 4227 87be af76 df3e c847 c7bd
00000030: b9bb c63d a146 0f3d d38a a6bd 370e 6f3d
00000040: 1a40 e83d 4f51 f93b 1bb4 ce3d a0b8 d93c
00000050: 5a3c 473c 90a9 41be cd08 4ebe a538 5d3e
00000060: bbc7 60be e25c 053e cfaf b63d a027 063e
00000070: f593 0fbe ea65 483d bc45 6cbe 0203 863e
00000080: 8c01 683b 9e19 c83c 0adc a7bd 07df 2a3e
00000090: fc80 bdbd e322 b6bd f25a 7e3d 16a8 bd3d
000000a0: c596 03be 778e fcbd dcc1 55be 431d 3b3e
000000b0: c1b6 833e e0ec 0a3d 91da 9ebe 4f31 d53d
000000c0: 5ef8 dd3e 3053 223d d7b4 f5bd fcb5 6b3e
000000d0: 26b4 94bd 2af2 c7bd 57d3 17be 9d68 593c
000000e0: 5119 75be e790 25be f120 dfbe 988f eb3d
000000f0: 8058 19bd 35f3 dcbd 6ec9 b3bc eebf 4dbd
00000100: e118 32be 2ce4 b3bb 132b 943e 06a2 f03d
00000110: 7a41 923d 21ef 12be 4bc2 083e 8863 163e
00000120: c909 79be 5df9 2dbe e0d4 df3d c53d ddbd
00000130: 879c 8abe 8e4a 0abe 830c 403a 6162 8ebd
00000140: ddd7 a1bc 75a6 4c3e 6fce b5be cf28 8ebd
00000150: 8b3e 4f3e 001d 9dbd 398c 8e3d 81d0 233d
00000160: d29c d23d 1401 123e 2fc5 09be e15d d63d
00000170: 6b54 213e ae1a 80be 02b7 bebd dc9a 40bc
00000180: 3dc1 b53d 4aff 0ebe 21a1 83be 9ea9 d6bd
00000190: 5471 f5bd 2c2b 07be ed9d 14be 1429 3fbe
000001a0: 5270 7fbe 6f26 b8be 629a 773e 5eb4 5e3e
000001b0: 5679 39bc 019b e3bd 8f85 353b a880 3e3d
000001c0: e996 fe3c c2d4 07be 2b25 13bb 6406 633e
000001d0: 656f 79be de54 593c 6418 903e 645d a3bd
000001e0: 8ab3 0d3d 76de 753d d115 43be 6807 253e
000001f0: b4b1 843e 18ba fa3c 87f0 1cbd 114f 2abe
00000200: 5e32 88bd 2434 e7bd e6eb dabd 6014 baba
00000210: 7280 813d 720f cbbd 70d3 aa3e 05eb 75be
00000220: 6d65 82bd 4a01 34be e95d 5bbe 02b7 45be
00000230: 3af6 2fbe 30bf 523e 8998 c2bd 0441 5fbe
00000240: 0ed3 18ba 7340 09be 3834 4c3e cb1a 1dbe
00000250: a828 2b3d b180 873d cc52 6b3e b1bd 043e
00000260: a828 403c c50d 2abe 24ac c43d 72ca 163e
00000270: ea39 c7bd 268d 75be 22cc 41be 2b7a 1e3e
00000280: 1428 ccbb e1d5 12be f9c4 96be 9a88 29be
00000290: 3c85 8f3e 8878 8c3e 80f6 dfbd d4e2 b2bd
000002a0: c8ba 0d3c a9dc c13c 5ffa 59be 1d8a e03d
000002b0: d519 5ebe 2fbb a0bd 9101 44be 00c9 2ebc
000002c0: b063 443e 5fa2 e0bd 0131 82bd 8162 2bbd
000002d0: 8658 0d3e 5762 913d ce34 e1bd 160d 7cbe
000002e0: 37db 73bd 9193 403e 1c08 64bd e3f8 8cbd
000002f0: 0d83 283d c9c3 1c3e 3ae1 6f3d b633 05be
00000300: 30e3 0a3e 9c92 8bbd b0e9 8d3c 7203 f13d
00000310: 0d45 cc3e 8fc3 15be 3046 773d 2ef7 0dbe
00000320: 00e2 81bd 651c af3d 98a0 913d a6bb 1c3e
00000330: 63c5 49be b936 fabd 4391 333e 88db 92be
00000340: 50fd f0bd fef9 37be 0961 85be 644e 4f3e
00000350: b4de acbb 0e66 0bbe efb8 1bbd 95d8 b1bc
00000360: 2a35 1cbd 6514 b93d 2b28 c1bd b540 12bd
00000370: b5db 02be 96ae acbd 5b02 03bd 7a3c a5bc
00000380: ac6c af3d 9f55 e9bd 39b6 59be 89fe e53d
00000390: 4ab5 75be fcf1 243e 2f3e de3d da92 4ebe
000003a0: bfa1 943c 5102 e43d 8841 b33b 89b9 5bbd
000003b0: 8bc7 e33c cf5f 633d 18bc ce3d b97c 803c
000003c0: 683f 58bd fc7c 63bd 44c3 f13d dd52 5ebe
000003d0: 0efd d43e 2d54 ba3d 6408 09bd 9524 15be
000003e0: e39f 213e 18db cd3d 9af5 2a3d 9881 aabd
000003f0: 8cfa 15bc 20eb 203e e0c8 c1bb 2809 03be

encoder.encoder_blocks.0.ff.2.bias f4 [24]
0.08957419 -0.0279066 -0.16475981 0.15338585 -0.020299116 0.15467177 0.15947 -0.18551421
0.10224118 -0.09841 -0.13506149 0.011259005 -0.11533495 -0.09715935 0.19947898 -0.12613559
-0.074114986 0.078641936 -0.016381543 0.05406873 0.07617989 -0.037464626 0.033579007 -0.07797338
00000000: ac72 b73d 629c e4bc ccb6 28be 2e11 1d3e
00000010: 554a a6bc 4762 1e3e 1b4c 233e 70f7 3dbe
00000020: d363 d13d 2f8b c9bd 8f4d 0abe b177 383c
00000030: bb34 ecbd 7bfb c6bd 3844 4c3e b029 01be
00000040: 99c9 97bd 060f a13d 9632 86bc 2c77 5d3d
00000050: 3404 9c3d 8274 19bd 248a 093d 82b0 9fbd

encoder.encoder_blocks.0.norm2.weight f4 [24]
0.91767687 0.9848548 1.0433294 0.97240555 1.072904 0.9092812 0.9050848 1.0068316
1.0419302 0.97749174 0.8965577 1.027077 1.1482792 1.0063002 1.0638354 1.092416
1.0503153 1.0078275 1.0703952 1.1641529 1.0125489 1.0499332 1.0190158 1.1131504
00000000: dfec 6a3f 721f 7c3f d18b 853f 92ef 783f
00000010: eb54 893f a7c6 683f a3b3 673f dcdf 803f
00000020: f85d 853f e63c 7a3f ce84 653f 4277 833f
00000030: d0fa 923f 72ce 803f c22b 883f 4ad4 8b3f
00000040: bb70 863f 7e00 813f b602 893f f602 953f
00000050: 349b 813f 3664 863f 1c6f 823f b67b 8e3f

encoder.encoder_blocks.0.norm2.bias f4 [24]
-0.032118756 0.008093549 0.03511868 -0.035494395 0.0052937893 0.012505962 0.008485165 -0.050770074
-0.028463855 -0.015866535 -0.014525301 0.037048463 0.030263616 0.017960502 0.020214766 0.018997343
-0.04657622 -0.001357456 0.03987914 0.021784024 -0.04700058 0.008582265 -0.048920926 0.00030086256
00000000: f58e 03bd ce9a 043c 9bd8 0f3d 9262 11bd
00000010: 8677 ad3b cee5 4c3c 5d05 0b3c 48f4 4fbd
00000020: 082d e9bc 89fa 81bc 87fb 6dbc 21c0 173d
00000030: 67eb f73c e721 933c 7099 a53c 51a0 9b3c
00000040: b5c6 3ebd aaec b1ba 4f58 233d 6974 b23c
00000050: ae83 40bd a19c 0c3c 4f61 48bd 17bd 9d39

encoder.encoder_blocks.1.attn.in_proj_weight f4 [72, 24]
0.087890044 0.06977599 0.046307087 -0.19126791 0.16466382 -0.06608549 0.04292108 -0.08799466
-0.12848763 -0.14073324 -0.0956311 -0.17847422 -0.16187224 0.15882808 0.30837777 0.10921387
-0.06373975 0.13694878 0.35486987 0.18570909 0.0025185086 -0.031229777 -0.0080187945 -0.38887715
0.1544428 -0.027940912 -0.19697712 -0.02899324 -0.18271205 -0.25359005 0.27674183 -0.3484405
0.16298388 -0.21503453 -0.21745183 0.18195052 0.05688737 0.17465022 0.131913 0.0022636615
-0.026148168 -0.013315329 -0.11784001 0.2224233 -0.19326223 -0.1565099 0.2111239 -0.23201388
0.12892644 -0.23766132 -0.08516942 0.071527965 -0.18157247 0.21047316 -0.22534564 -0.11228117
-0.24100591 -0.10153751 0.19942263 0.073174156 -0.07880164 -0.10151817 -0.088281825 -0.05930479
-0.13761818 -0.21352153 0.14949456 0.08302999 0.1659168 -0.14554024 -0.16875969 -0.071679495
0.10818128 0.22182968 0.18088359 0.03214974 0.15135904 0.0978835 -0.12095162 -0.15731822
-0.11106686 -0.09712682 0.09677649 -0.076732576 -0.020573929 -0.21135244 -0.11195687 0.09619113
-0.08536229 0.17089643 0.06140586 -0.014111922 -0.06708986 -0.0012161536 0.11116658 -0.16647024
-0.01913068 0.15529656 0.091817446 -0.20829654 -0.079337426 0.19635993 -0.056807637 -0.037365276
-0.29712582 0.121001355 -0.2753669 0.13594556 0.13327289 -0.094022326 0.17298886 0.103284165
-0.055985205 0.2298361 0.34621122 -0.09433137 -0.14286259 0.22540784 -0.16366382 -0.49167398
0.035252567 -0.18099594 -0.021165857 0.21432906 0.026924962 -0.045143697 0.013181919 -0.05307448
-0.06758283 0.10294631 0.13738392 -0.09762229 -0.08097875 -0.373127 -0.26574704 0.08104776
-0.09419543 -0.17528841 0.05065579 0.15316223 0.25660148 0.027194636 -0.084562846 -0.11602966
0.01946635 0.18759358 0.07968304 -0.106089585 0.054472107 -0.19221067 0.1821186 -0.11745491
-0.2883833 -0.16382869 0.07836158 -0.11295288 -0.16975777 0.14862306 -0.05883199 0.23896149
-0.22913334 -0.0023791331 0.26942334 -0.24153459 0.3131146 -0.47798327 0.08509388 -0.09161472
0.18744045 0.18839681 0.06872842 0.46178213 0.1319923 0.15196031 0.20868412 0.23767772
0.1142255 0.036393084 -0.25263482 -0.112620465 -0.19193317 -0.32984146 -0.10030428 -0.076099895
-0.20953105 0.23209238 -0.08930736 0.10077606 -0.17752852 0.010342622 -0.2292517 -0.07861663
-0.11139601 -0.07858939 -0.10994658 0.055328574 0.25567916 0.11940195 -0.17488654 -0.11302389
0.04395236 -0.23150498 0.20369594 -0.32168853 0.058228374 0.047719978 0.109438784 -0.18692674
-0.15109476 -0.20897914 -0.2454722 -0.25500247 -0.05108148 0.10749443 -0.22750351 0.36018986
0.042426825 0.24102657 0.1263146 0.10367627 0.18440911 0.020335246 0.17697895 -0.010683736
0.053275663 -0.1595604 -0.2208468 -0.31633705 -0.03379473 0.27189523 0.14203419 0.03364335
0.020053765 -0.37885234 -0.010161249 -0.16944475 -0.16060153 -0.23561318 0.3781815 0.4753998
0.016053978 -0.010023023 0.082158275 0.19968277 0.20298 -0.198831 0.0754751 -0.06959402
0.26232475 -0.022584662 -0.08124434 0.12328894 -0.23303206 -0.2684283 0.12093596 0.0672922
00000000: b2ff b33d b7e6 8e3d 80ac 3d3d bcdb 43be
00000010: a29d 283e d457 87bd 04ce 2f3d 8b36 b4bd
00000020: 4392 03be 601c 10be 3dda c3bd f2c1 36be
00000030: d6c1 25be d4a3 223e b1e3 9d3e 85ab df3d
00000040: fc89 82bd 4d3c 0c3e 81b1 b53e 862a 3e3e
00000050: 900d 253b 97d5 ffbc 4361 03bc e81a c7be
00000060: 4126 1e3e 57e4 e4bc 5fb4 49be 3b83 edbc
00000070: de18 3bbe 8ed6 81be 1bb1 8d3e cb66 b2be
00000080: 3fe5 263e 0332 5cbe b1ab 5ebe 3d51 3a3e
00000090: bb02 693d 82d7 323e 3414 073e f059 143b
000000a0: af34 d6bc 8a28 5abc 1a56 f1bd efc2 633e
000000b0: 89e6 45be 2244 20be dd30 583e 0c95 6dbe
000000c0: 4b05 043e 7d5d 73be 4e6d aebd 417d 923d
000000d0: 22ee 39be 4786 573e 02c1 66be acf3 e5bd
000000e0: 41ca 76be e6f2 cfbd 7235 4c3e 55dc 953d
000000f0: c162 a1bd c2e8 cfbd 1acd b4bd 94e9 72bd
00000100: c8eb 0cbe 63a5 5abe 1a15 193e a10b aa3d
00000110: 18e6 293e 8008 15be 57cf 2cbe b3cc 92bd
00000120: 268e dd3d 5227 633e 8c39 393e 72af 033d
00000130: ddfd 1a3e 2577 c83d 7cb5 f7bd 0718 21be
00000140: 0677 e3bd 6dea c6bd c132 c63d f825 9dbd
00000150: a88a a8bc c66c 58be a549 e5bd dbff c43d
00000160: 6dd2 aebd 79ff 2e3e b684 7b3d b135 67bc
00000170: 6966 89bd 5867 9fba 4eab e33d 2d77 2abe
00000180: f2b7 9cbc 1006 1f3e c90a bc3d b04b 55be
00000190: a97b a2bd 9412 493e 20af 68bd 550c 19bd
000001a0: e020 98be 8fcf f73d e4fc 8cbe 5035 0b3e
000001b0: b078 083e c78e c0bd fe23 313e a686 d33d
000001c0: be50 65bd 285a 6b3e 9942 b13e ce30 c1bd
000001d0: 924a 12be 50d1 663e 7d97 27be b1bc fbbe
000001e0: ff64 103d 0057 39be 0564 adbc 1479 5b3e
000001f0: bd91 dc3c 99e8 38bd faf8 573c a064 59bd
00000200: de68 8abd 84d5 d23d 5fae 0c3e 32ee c7bd
00000210: 30d8 a5bd 810a bfbe ff0f 88be 5efc a53d
00000220: 89e9 c0bd ce7e 33be 727c 4f3d 8fd6 1c3e
00000230: 4561 833e 49c7 de3c 492f adbd f5a0 edbd
00000240: e577 9f3c 8818 403e dd30 a33d 7f45 d9bd
00000250: 251e 5f3d e0d2 44be 4c7d 3a3e 338c f0bd
00000260: faa6 93be b5c2 27be 097c a03d d753 e7bd
00000270: fbd4 2dbe a530 183e d0f9 70bd 52b2 743e
00000280: eea1 6abe 3beb 1bbb dbf1 893e d854 77be
00000290: 8f50 a03e 39ba f4be b345 ae3d 80a0 bbbd
000002a0: 64f0 3f3e 18eb 403e 7cc1 8c3d b56e ec3e
000002b0: fd28 073e 7c9b 1b3e 4ab1 553e ca61 733e
000002c0: 0fef e93d ea10 153d 5a59 81be 8fa5 e6bd
000002d0: 218a 44be fbe0 a8be 556c cdbd 43da 9bbd
000002e0: 4f8f 56be a0a9 6d3e c7e6 b6bd ae63 ce3d
000002f0: 09ca 35be 1a74 293c f5c0 6abe c101 a1bd
00000300: 9723 e4bd 79f3 a0bd ac2b e1bd 37a0 623d
00000310: 61e8 823e 0289 f43d 7515 33be 1279 e7bd
00000320: 6407 343d a40f 6dbe ab95 503e 5cb4 a4be
00000330: e080 6e3d 0676 433d 7121 e03d b969 3fbe
00000340: 96b8 1abe a1fe 55be 105d 7bbe af8f 82be
00000350: d03a 51bd 0a26 dc3d aef6 68be ce6a b83e
00000360: c0c7 2d3d abcf 763e 9d58 013e 3954 d43d
00000370: bed5 3c3e 1a96 a63c f839 353e d60a 2fbc
00000380: 9537 5a3d cd63 23be aa25 62be eef6 a1be
00000390: 586c 0abd da35 8b3e 6971 113e 9ccd 093d
000003a0: cb47 a43c eff8 c1be 5e7b 26bc ed82 2dbe
000003b0: ba74 24be 9544 71be 01a1 c13e 9a67 f33e
000003c0: a283 833c 9b37 24bc 9942 a83d a479 4c3e
000003d0: fdd9 4f3e 5b9a 4bbe b092 9a3d 4f87 8ebd
000003e0: 6e4f 863e 7803 b9bc 6f63 a6bd e97e fc3d
000003f0: f59f 6ebe 6f6f 89be 46ad f73d 7ed0 893d

encoder.encoder_blocks.1.attn.in_proj_bias f4 [72]
0.005656579 0.0047217757 -0.05624484 -0.039083745 0.021946348 -0.028801154 -0.0362757 0.12898551
-0.0017199728 0.20989917 0.088832036 0.23214659 -0.11890501 -0.10735576 -0.001344448 -0.04726132
-0.02429476 -0.123790555 0.08950335 0.007283993 -0.013302512 -0.035331167 0.02126693 -0.07617887
-0.0049522533 -0.0067848624 0.0035198187 -0.0027218326 -0.0075798235 0.0009933627 -0.0061270655 3.9438084e-05
-0.0016751952 -0.0022122087 0.0043422002 -0.0058235573 -0.010605571 -0.019122457 -0.0026387633 -0.007326734
0.0016317838 -0.000878024 0.00019045915 -0.015311266 0.006708165 -0.0021083816 0.0016828566 -0.0023363233
0.018538719 0.056931917 -0.015623911 -0.01944469 -0.0022899823 -0.017183684 -0.009491044 -0.08538839
-0.056352187 -0.0054822415 0.028204873 0.027357455 0.01184877 -0.023101032 -0.026253583 -0.008367247
0.019539787 0.041920315 -0.008786847 -0.024368983 -0.00890064 -0.003349446 -0.095729895 -0.00553729
00000000: d35a b93b 20b9 9a3b fd60 66bd 4716 20bd
00000010: d4c8 b33c 66f0 ebbc d495 14bd c714 043e
00000020: b670 e1ba cfef 563e 92ed b53d d6b7 6d3e
00000030: 7884 f3bd 56dd dbbd 3038 b0ba 1695 41bd
00000040: ce05 c7bc e785 fdbd 884d b73d 90ae ee3b
00000050: c7f2 59bc 6ab7 10bd fc37 ae3c ab03 9cbd
00000060: 8346 a2bb 8d53 debb c2ac 663b c660 32bb
00000070: 2b60 f8bb b933 823a 8dc5 c8bb 526a 2538
00000080: 3992 dbba b4fa 10bb 0449 8e3b 8ad3 bebb
00000090: fdc2 2dbc b3a6 9cbc 1aef 2cbb 1915 f0bb
000000a0: 94e1 d53a 312b 66ba fdb5 4739 1bdc 7abc
000000b0: 2bd0 db3b c62c 0abb 4c93 dc3a 001d 19bb
000000c0: 83de 973c 7131 693d 6ffb 7fbc 784a 9fbc
000000d0: 8713 16bb ccc4 8cbc 5380 1bbc 1ce0 aebd
000000e0: 8dd1 66bd 60a4 b3bb e80d e73c be1c e03c
000000f0: 5821 423c 603e bdbc c111 d7bc c716 09bc
00000100: e711 a03c a3b4 2b3d b5f6 0fbc 76a1 c7bc
00000110: fdd3 11bc 6182 5bbb 090e c4bd 2872 b5bb
